{"weightsManifest": [{"paths": ["group1-shard1of16", "group1-shard2of16", "group1-shard3of16", "group1-shard4of16", "group1-shard5of16", "group1-shard6of16", "group1-shard7of16", "group1-shard8of16", "group1-shard9of16", "group1-shard10of16", "group1-shard11of16", "group1-shard12of16", "group1-shard13of16", "group1-shard14of16", "group1-shard15of16", "group1-shard16of16"], "weights": [{"shape": [16], "name": "batch_normalization_1/gamma", "dtype": "float32"}, {"shape": [16], "name": "batch_normalization_1/beta", "dtype": "float32"}, {"shape": [16], "name": "batch_normalization_1/moving_mean", "dtype": "float32"}, {"shape": [16], "name": "batch_normalization_1/moving_variance", "dtype": "float32"}, {"shape": [32], "name": "batch_normalization_2/gamma", "dtype": "float32"}, {"shape": [32], "name": "batch_normalization_2/beta", "dtype": "float32"}, {"shape": [32], "name": "batch_normalization_2/moving_mean", "dtype": "float32"}, {"shape": [32], "name": "batch_normalization_2/moving_variance", "dtype": "float32"}, {"shape": [64], "name": "batch_normalization_3/gamma", "dtype": "float32"}, {"shape": [64], "name": "batch_normalization_3/beta", "dtype": "float32"}, {"shape": [64], "name": "batch_normalization_3/moving_mean", "dtype": "float32"}, {"shape": [64], "name": "batch_normalization_3/moving_variance", "dtype": "float32"}, {"shape": [128], "name": "batch_normalization_4/gamma", "dtype": "float32"}, {"shape": [128], "name": "batch_normalization_4/beta", "dtype": "float32"}, {"shape": [128], "name": "batch_normalization_4/moving_mean", "dtype": "float32"}, {"shape": [128], "name": "batch_normalization_4/moving_variance", "dtype": "float32"}, {"shape": [256], "name": "batch_normalization_5/gamma", "dtype": "float32"}, {"shape": [256], "name": "batch_normalization_5/beta", "dtype": "float32"}, {"shape": [256], "name": "batch_normalization_5/moving_mean", "dtype": "float32"}, {"shape": [256], "name": "batch_normalization_5/moving_variance", "dtype": "float32"}, {"shape": [512], "name": "batch_normalization_6/gamma", "dtype": "float32"}, {"shape": [512], "name": "batch_normalization_6/beta", "dtype": "float32"}, {"shape": [512], "name": "batch_normalization_6/moving_mean", "dtype": "float32"}, {"shape": [512], "name": "batch_normalization_6/moving_variance", "dtype": "float32"}, {"shape": [1024], "name": "batch_normalization_7/gamma", "dtype": "float32"}, {"shape": [1024], "name": "batch_normalization_7/beta", "dtype": "float32"}, {"shape": [1024], "name": "batch_normalization_7/moving_mean", "dtype": "float32"}, {"shape": [1024], "name": "batch_normalization_7/moving_variance", "dtype": "float32"}, {"shape": [1024], "name": "batch_normalization_8/gamma", "dtype": "float32"}, {"shape": [1024], "name": "batch_normalization_8/beta", "dtype": "float32"}, {"shape": [1024], "name": "batch_normalization_8/moving_mean", "dtype": "float32"}, {"shape": [1024], "name": "batch_normalization_8/moving_variance", "dtype": "float32"}, {"shape": [3, 3, 3, 16], "name": "conv2d_1/kernel", "dtype": "float32"}, {"shape": [3, 3, 16, 32], "name": "conv2d_2/kernel", "dtype": "float32"}, {"shape": [3, 3, 32, 64], "name": "conv2d_3/kernel", "dtype": "float32"}, {"shape": [3, 3, 64, 128], "name": "conv2d_4/kernel", "dtype": "float32"}, {"shape": [3, 3, 128, 256], "name": "conv2d_5/kernel", "dtype": "float32"}, {"shape": [3, 3, 256, 512], "name": "conv2d_6/kernel", "dtype": "float32"}, {"shape": [3, 3, 512, 1024], "name": "conv2d_7/kernel", "dtype": "float32"}, {"shape": [3, 3, 1024, 1024], "name": "conv2d_8/kernel", "dtype": "float32"}, {"shape": [1, 1, 1024, 125], "name": "conv2d_9/kernel", "dtype": "float32"}, {"shape": [125], "name": "conv2d_9/bias", "dtype": "float32"}]}], "modelTopology": {"backend": "tensorflow", "model_config": {"class_name": "Model", "config": {"name": "model_1", "layers": [{"class_name": "InputLayer", "name": "input_1", "inbound_nodes": [], "config": {"name": "input_1", "dtype": "float32", "batch_input_shape": [null, 416, 416, 3], "sparse": false}}, {"class_name": "Conv2D", "name": "conv2d_1", "inbound_nodes": [[["input_1", 0, 0, {}]]], "config": {"bias_regularizer": null, "filters": 16, "data_format": "channels_last", "strides": [1, 1], "name": "conv2d_1", "kernel_constraint": null, "kernel_regularizer": {"class_name": "L1L2", "config": {"l2": 0.0005000000237487257, "l1": 0.0}}, "bias_constraint": null, "use_bias": false, "kernel_initializer": {"class_name": "VarianceScaling", "config": {"scale": 1.0, "seed": null, "distribution": "uniform", "mode": "fan_avg"}}, "bias_initializer": {"class_name": "Zeros", "config": {}}, "trainable": true, "activity_regularizer": null, "kernel_size": [3, 3], "padding": "same", "dilation_rate": [1, 1], "activation": "linear"}}, {"class_name": "BatchNormalization", "name": "batch_normalization_1", "inbound_nodes": [[["conv2d_1", 0, 0, {}]]], "config": {"moving_mean_initializer": {"class_name": "Zeros", "config": {}}, "axis": -1, "momentum": 0.99, "name": "batch_normalization_1", "beta_regularizer": null, "gamma_constraint": null, "gamma_initializer": {"class_name": "Ones", "config": {}}, "moving_variance_initializer": {"class_name": "Ones", "config": {}}, "beta_constraint": null, "epsilon": 0.001, "beta_initializer": {"class_name": "Zeros", "config": {}}, "trainable": true, "scale": true, "center": true, "gamma_regularizer": null}}, {"class_name": "LeakyReLU", "name": "leaky_re_lu_1", "inbound_nodes": [[["batch_normalization_1", 0, 0, {}]]], "config": {"alpha": 0.10000000149011612, "name": "leaky_re_lu_1", "trainable": true}}, {"class_name": "MaxPooling2D", "name": "max_pooling2d_1", "inbound_nodes": [[["leaky_re_lu_1", 0, 0, {}]]], "config": {"pool_size": [2, 2], "data_format": "channels_last", "strides": [2, 2], "name": "max_pooling2d_1", "trainable": true, "padding": "same"}}, {"class_name": "Conv2D", "name": "conv2d_2", "inbound_nodes": [[["max_pooling2d_1", 0, 0, {}]]], "config": {"bias_regularizer": null, "filters": 32, "data_format": "channels_last", "strides": [1, 1], "name": "conv2d_2", "kernel_constraint": null, "kernel_regularizer": {"class_name": "L1L2", "config": {"l2": 0.0005000000237487257, "l1": 0.0}}, "bias_constraint": null, "use_bias": false, "kernel_initializer": {"class_name": "VarianceScaling", "config": {"scale": 1.0, "seed": null, "distribution": "uniform", "mode": "fan_avg"}}, "bias_initializer": {"class_name": "Zeros", "config": {}}, "trainable": true, "activity_regularizer": null, "kernel_size": [3, 3], "padding": "same", "dilation_rate": [1, 1], "activation": "linear"}}, {"class_name": "BatchNormalization", "name": "batch_normalization_2", "inbound_nodes": [[["conv2d_2", 0, 0, {}]]], "config": {"moving_mean_initializer": {"class_name": "Zeros", "config": {}}, "axis": -1, "momentum": 0.99, "name": "batch_normalization_2", "beta_regularizer": null, "gamma_constraint": null, "gamma_initializer": {"class_name": "Ones", "config": {}}, "moving_variance_initializer": {"class_name": "Ones", "config": {}}, "beta_constraint": null, "epsilon": 0.001, "beta_initializer": {"class_name": "Zeros", "config": {}}, "trainable": true, "scale": true, "center": true, "gamma_regularizer": null}}, {"class_name": "LeakyReLU", "name": "leaky_re_lu_2", "inbound_nodes": [[["batch_normalization_2", 0, 0, {}]]], "config": {"alpha": 0.10000000149011612, "name": "leaky_re_lu_2", "trainable": true}}, {"class_name": "MaxPooling2D", "name": "max_pooling2d_2", "inbound_nodes": [[["leaky_re_lu_2", 0, 0, {}]]], "config": {"pool_size": [2, 2], "data_format": "channels_last", "strides": [2, 2], "name": "max_pooling2d_2", "trainable": true, "padding": "same"}}, {"class_name": "Conv2D", "name": "conv2d_3", "inbound_nodes": [[["max_pooling2d_2", 0, 0, {}]]], "config": {"bias_regularizer": null, "filters": 64, "data_format": "channels_last", "strides": [1, 1], "name": "conv2d_3", "kernel_constraint": null, "kernel_regularizer": {"class_name": "L1L2", "config": {"l2": 0.0005000000237487257, "l1": 0.0}}, "bias_constraint": null, "use_bias": false, "kernel_initializer": {"class_name": "VarianceScaling", "config": {"scale": 1.0, "seed": null, "distribution": "uniform", "mode": "fan_avg"}}, "bias_initializer": {"class_name": "Zeros", "config": {}}, "trainable": true, "activity_regularizer": null, "kernel_size": [3, 3], "padding": "same", "dilation_rate": [1, 1], "activation": "linear"}}, {"class_name": "BatchNormalization", "name": "batch_normalization_3", "inbound_nodes": [[["conv2d_3", 0, 0, {}]]], "config": {"moving_mean_initializer": {"class_name": "Zeros", "config": {}}, "axis": -1, "momentum": 0.99, "name": "batch_normalization_3", "beta_regularizer": null, "gamma_constraint": null, "gamma_initializer": {"class_name": "Ones", "config": {}}, "moving_variance_initializer": {"class_name": "Ones", "config": {}}, "beta_constraint": null, "epsilon": 0.001, "beta_initializer": {"class_name": "Zeros", "config": {}}, "trainable": true, "scale": true, "center": true, "gamma_regularizer": null}}, {"class_name": "LeakyReLU", "name": "leaky_re_lu_3", "inbound_nodes": [[["batch_normalization_3", 0, 0, {}]]], "config": {"alpha": 0.10000000149011612, "name": "leaky_re_lu_3", "trainable": true}}, {"class_name": "MaxPooling2D", "name": "max_pooling2d_3", "inbound_nodes": [[["leaky_re_lu_3", 0, 0, {}]]], "config": {"pool_size": [2, 2], "data_format": "channels_last", "strides": [2, 2], "name": "max_pooling2d_3", "trainable": true, "padding": "same"}}, {"class_name": "Conv2D", "name": "conv2d_4", "inbound_nodes": [[["max_pooling2d_3", 0, 0, {}]]], "config": {"bias_regularizer": null, "filters": 128, "data_format": "channels_last", "strides": [1, 1], "name": "conv2d_4", "kernel_constraint": null, "kernel_regularizer": {"class_name": "L1L2", "config": {"l2": 0.0005000000237487257, "l1": 0.0}}, "bias_constraint": null, "use_bias": false, "kernel_initializer": {"class_name": "VarianceScaling", "config": {"scale": 1.0, "seed": null, "distribution": "uniform", "mode": "fan_avg"}}, "bias_initializer": {"class_name": "Zeros", "config": {}}, "trainable": true, "activity_regularizer": null, "kernel_size": [3, 3], "padding": "same", "dilation_rate": [1, 1], "activation": "linear"}}, {"class_name": "BatchNormalization", "name": "batch_normalization_4", "inbound_nodes": [[["conv2d_4", 0, 0, {}]]], "config": {"moving_mean_initializer": {"class_name": "Zeros", "config": {}}, "axis": -1, "momentum": 0.99, "name": "batch_normalization_4", "beta_regularizer": null, "gamma_constraint": null, "gamma_initializer": {"class_name": "Ones", "config": {}}, "moving_variance_initializer": {"class_name": "Ones", "config": {}}, "beta_constraint": null, "epsilon": 0.001, "beta_initializer": {"class_name": "Zeros", "config": {}}, "trainable": true, "scale": true, "center": true, "gamma_regularizer": null}}, {"class_name": "LeakyReLU", "name": "leaky_re_lu_4", "inbound_nodes": [[["batch_normalization_4", 0, 0, {}]]], "config": {"alpha": 0.10000000149011612, "name": "leaky_re_lu_4", "trainable": true}}, {"class_name": "MaxPooling2D", "name": "max_pooling2d_4", "inbound_nodes": [[["leaky_re_lu_4", 0, 0, {}]]], "config": {"pool_size": [2, 2], "data_format": "channels_last", "strides": [2, 2], "name": "max_pooling2d_4", "trainable": true, "padding": "same"}}, {"class_name": "Conv2D", "name": "conv2d_5", "inbound_nodes": [[["max_pooling2d_4", 0, 0, {}]]], "config": {"bias_regularizer": null, "filters": 256, "data_format": "channels_last", "strides": [1, 1], "name": "conv2d_5", "kernel_constraint": null, "kernel_regularizer": {"class_name": "L1L2", "config": {"l2": 0.0005000000237487257, "l1": 0.0}}, "bias_constraint": null, "use_bias": false, "kernel_initializer": {"class_name": "VarianceScaling", "config": {"scale": 1.0, "seed": null, "distribution": "uniform", "mode": "fan_avg"}}, "bias_initializer": {"class_name": "Zeros", "config": {}}, "trainable": true, "activity_regularizer": null, "kernel_size": [3, 3], "padding": "same", "dilation_rate": [1, 1], "activation": "linear"}}, {"class_name": "BatchNormalization", "name": "batch_normalization_5", "inbound_nodes": [[["conv2d_5", 0, 0, {}]]], "config": {"moving_mean_initializer": {"class_name": "Zeros", "config": {}}, "axis": -1, "momentum": 0.99, "name": "batch_normalization_5", "beta_regularizer": null, "gamma_constraint": null, "gamma_initializer": {"class_name": "Ones", "config": {}}, "moving_variance_initializer": {"class_name": "Ones", "config": {}}, "beta_constraint": null, "epsilon": 0.001, "beta_initializer": {"class_name": "Zeros", "config": {}}, "trainable": true, "scale": true, "center": true, "gamma_regularizer": null}}, {"class_name": "LeakyReLU", "name": "leaky_re_lu_5", "inbound_nodes": [[["batch_normalization_5", 0, 0, {}]]], "config": {"alpha": 0.10000000149011612, "name": "leaky_re_lu_5", "trainable": true}}, {"class_name": "MaxPooling2D", "name": "max_pooling2d_5", "inbound_nodes": [[["leaky_re_lu_5", 0, 0, {}]]], "config": {"pool_size": [2, 2], "data_format": "channels_last", "strides": [2, 2], "name": "max_pooling2d_5", "trainable": true, "padding": "same"}}, {"class_name": "Conv2D", "name": "conv2d_6", "inbound_nodes": [[["max_pooling2d_5", 0, 0, {}]]], "config": {"bias_regularizer": null, "filters": 512, "data_format": "channels_last", "strides": [1, 1], "name": "conv2d_6", "kernel_constraint": null, "kernel_regularizer": {"class_name": "L1L2", "config": {"l2": 0.0005000000237487257, "l1": 0.0}}, "bias_constraint": null, "use_bias": false, "kernel_initializer": {"class_name": "VarianceScaling", "config": {"scale": 1.0, "seed": null, "distribution": "uniform", "mode": "fan_avg"}}, "bias_initializer": {"class_name": "Zeros", "config": {}}, "trainable": true, "activity_regularizer": null, "kernel_size": [3, 3], "padding": "same", "dilation_rate": [1, 1], "activation": "linear"}}, {"class_name": "BatchNormalization", "name": "batch_normalization_6", "inbound_nodes": [[["conv2d_6", 0, 0, {}]]], "config": {"moving_mean_initializer": {"class_name": "Zeros", "config": {}}, "axis": -1, "momentum": 0.99, "name": "batch_normalization_6", "beta_regularizer": null, "gamma_constraint": null, "gamma_initializer": {"class_name": "Ones", "config": {}}, "moving_variance_initializer": {"class_name": "Ones", "config": {}}, "beta_constraint": null, "epsilon": 0.001, "beta_initializer": {"class_name": "Zeros", "config": {}}, "trainable": true, "scale": true, "center": true, "gamma_regularizer": null}}, {"class_name": "LeakyReLU", "name": "leaky_re_lu_6", "inbound_nodes": [[["batch_normalization_6", 0, 0, {}]]], "config": {"alpha": 0.10000000149011612, "name": "leaky_re_lu_6", "trainable": true}}, {"class_name": "MaxPooling2D", "name": "max_pooling2d_6", "inbound_nodes": [[["leaky_re_lu_6", 0, 0, {}]]], "config": {"pool_size": [2, 2], "data_format": "channels_last", "strides": [1, 1], "name": "max_pooling2d_6", "trainable": true, "padding": "same"}}, {"class_name": "Conv2D", "name": "conv2d_7", "inbound_nodes": [[["max_pooling2d_6", 0, 0, {}]]], "config": {"bias_regularizer": null, "filters": 1024, "data_format": "channels_last", "strides": [1, 1], "name": "conv2d_7", "kernel_constraint": null, "kernel_regularizer": {"class_name": "L1L2", "config": {"l2": 0.0005000000237487257, "l1": 0.0}}, "bias_constraint": null, "use_bias": false, "kernel_initializer": {"class_name": "VarianceScaling", "config": {"scale": 1.0, "seed": null, "distribution": "uniform", "mode": "fan_avg"}}, "bias_initializer": {"class_name": "Zeros", "config": {}}, "trainable": true, "activity_regularizer": null, "kernel_size": [3, 3], "padding": "same", "dilation_rate": [1, 1], "activation": "linear"}}, {"class_name": "BatchNormalization", "name": "batch_normalization_7", "inbound_nodes": [[["conv2d_7", 0, 0, {}]]], "config": {"moving_mean_initializer": {"class_name": "Zeros", "config": {}}, "axis": -1, "momentum": 0.99, "name": "batch_normalization_7", "beta_regularizer": null, "gamma_constraint": null, "gamma_initializer": {"class_name": "Ones", "config": {}}, "moving_variance_initializer": {"class_name": "Ones", "config": {}}, "beta_constraint": null, "epsilon": 0.001, "beta_initializer": {"class_name": "Zeros", "config": {}}, "trainable": true, "scale": true, "center": true, "gamma_regularizer": null}}, {"class_name": "LeakyReLU", "name": "leaky_re_lu_7", "inbound_nodes": [[["batch_normalization_7", 0, 0, {}]]], "config": {"alpha": 0.10000000149011612, "name": "leaky_re_lu_7", "trainable": true}}, {"class_name": "Conv2D", "name": "conv2d_8", "inbound_nodes": [[["leaky_re_lu_7", 0, 0, {}]]], "config": {"bias_regularizer": null, "filters": 1024, "data_format": "channels_last", "strides": [1, 1], "name": "conv2d_8", "kernel_constraint": null, "kernel_regularizer": {"class_name": "L1L2", "config": {"l2": 0.0005000000237487257, "l1": 0.0}}, "bias_constraint": null, "use_bias": false, "kernel_initializer": {"class_name": "VarianceScaling", "config": {"scale": 1.0, "seed": null, "distribution": "uniform", "mode": "fan_avg"}}, "bias_initializer": {"class_name": "Zeros", "config": {}}, "trainable": true, "activity_regularizer": null, "kernel_size": [3, 3], "padding": "same", "dilation_rate": [1, 1], "activation": "linear"}}, {"class_name": "BatchNormalization", "name": "batch_normalization_8", "inbound_nodes": [[["conv2d_8", 0, 0, {}]]], "config": {"moving_mean_initializer": {"class_name": "Zeros", "config": {}}, "axis": -1, "momentum": 0.99, "name": "batch_normalization_8", "beta_regularizer": null, "gamma_constraint": null, "gamma_initializer": {"class_name": "Ones", "config": {}}, "moving_variance_initializer": {"class_name": "Ones", "config": {}}, "beta_constraint": null, "epsilon": 0.001, "beta_initializer": {"class_name": "Zeros", "config": {}}, "trainable": true, "scale": true, "center": true, "gamma_regularizer": null}}, {"class_name": "LeakyReLU", "name": "leaky_re_lu_8", "inbound_nodes": [[["batch_normalization_8", 0, 0, {}]]], "config": {"alpha": 0.10000000149011612, "name": "leaky_re_lu_8", "trainable": true}}, {"class_name": "Conv2D", "name": "conv2d_9", "inbound_nodes": [[["leaky_re_lu_8", 0, 0, {}]]], "config": {"bias_regularizer": null, "filters": 125, "data_format": "channels_last", "strides": [1, 1], "name": "conv2d_9", "kernel_constraint": null, "kernel_regularizer": {"class_name": "L1L2", "config": {"l2": 0.0005000000237487257, "l1": 0.0}}, "bias_constraint": null, "use_bias": true, "kernel_initializer": {"class_name": "VarianceScaling", "config": {"scale": 1.0, "seed": null, "distribution": "uniform", "mode": "fan_avg"}}, "bias_initializer": {"class_name": "Zeros", "config": {}}, "trainable": true, "activity_regularizer": null, "kernel_size": [1, 1], "padding": "same", "dilation_rate": [1, 1], "activation": "linear"}}], "input_layers": [["input_1", 0, 0]], "output_layers": [["conv2d_9", 0, 0]]}}, "keras_version": "2.2.2"}}