{"modelTopology": {"keras_version": "2.0.8", "model_config": {"class_name": "Model", "config": {"layers": [{"class_name": "InputLayer", "inbound_nodes": [], "config": {"dtype": "float32", "batch_input_shape": [null, null, null, 3], "name": "input_1", "sparse": false}, "name": "input_1"}, {"class_name": "Conv2D", "inbound_nodes": [[["input_1", 0, 0, {}]]], "config": {"kernel_initializer": {"class_name": "VarianceScaling", "config": {"distribution": "uniform", "scale": 1.0, "seed": null, "mode": "fan_avg"}}, "bias_initializer": {"class_name": "Zeros", "config": {}}, "kernel_constraint": null, "bias_regularizer": null, "bias_constraint": null, "activity_regularizer": null, "trainable": true, "data_format": "channels_last", "padding": "same", "strides": [1, 1], "dilation_rate": [1, 1], "kernel_regularizer": {"class_name": "L1L2", "config": {"l2": 0.0005000000237487257, "l1": 0.0}}, "filters": 32, "use_bias": false, "activation": "linear", "kernel_size": [3, 3], "name": "conv2d_1"}, "name": "conv2d_1"}, {"class_name": "BatchNormalization", "inbound_nodes": [[["conv2d_1", 0, 0, {}]]], "config": {"beta_constraint": null, "gamma_initializer": {"class_name": "Ones", "config": {}}, "moving_mean_initializer": {"class_name": "Zeros", "config": {}}, "name": "batch_normalization_1", "epsilon": 0.001, "trainable": true, "moving_variance_initializer": {"class_name": "Ones", "config": {}}, "beta_initializer": {"class_name": "Zeros", "config": {}}, "gamma_constraint": null, "scale": true, "gamma_regularizer": null, "axis": -1, "beta_regularizer": null, "momentum": 0.99, "center": true}, "name": "batch_normalization_1"}, {"class_name": "LeakyReLU", "inbound_nodes": [[["batch_normalization_1", 0, 0, {}]]], "config": {"alpha": 0.10000000149011612, "trainable": true, "name": "leaky_re_lu_1"}, "name": "leaky_re_lu_1"}, {"class_name": "ZeroPadding2D", "inbound_nodes": [[["leaky_re_lu_1", 0, 0, {}]]], "config": {"padding": [[1, 0], [1, 0]], "trainable": true, "name": "zero_padding2d_1", "data_format": "channels_last"}, "name": "zero_padding2d_1"}, {"class_name": "Conv2D", "inbound_nodes": [[["zero_padding2d_1", 0, 0, {}]]], "config": {"kernel_initializer": {"class_name": "VarianceScaling", "config": {"distribution": "uniform", "scale": 1.0, "seed": null, "mode": "fan_avg"}}, "bias_initializer": {"class_name": "Zeros", "config": {}}, "kernel_constraint": null, "bias_regularizer": null, "bias_constraint": null, "activity_regularizer": null, "trainable": true, "data_format": "channels_last", "padding": "valid", "strides": [2, 2], "dilation_rate": [1, 1], "kernel_regularizer": {"class_name": "L1L2", "config": {"l2": 0.0005000000237487257, "l1": 0.0}}, "filters": 64, "use_bias": false, "activation": "linear", "kernel_size": [3, 3], "name": "conv2d_2"}, "name": "conv2d_2"}, {"class_name": "BatchNormalization", "inbound_nodes": [[["conv2d_2", 0, 0, {}]]], "config": {"beta_constraint": null, "gamma_initializer": {"class_name": "Ones", "config": {}}, "moving_mean_initializer": {"class_name": "Zeros", "config": {}}, "name": "batch_normalization_2", "epsilon": 0.001, "trainable": true, "moving_variance_initializer": {"class_name": "Ones", "config": {}}, "beta_initializer": {"class_name": "Zeros", "config": {}}, "gamma_constraint": null, "scale": true, "gamma_regularizer": null, "axis": -1, "beta_regularizer": null, "momentum": 0.99, "center": true}, "name": "batch_normalization_2"}, {"class_name": "LeakyReLU", "inbound_nodes": [[["batch_normalization_2", 0, 0, {}]]], "config": {"alpha": 0.10000000149011612, "trainable": true, "name": "leaky_re_lu_2"}, "name": "leaky_re_lu_2"}, {"class_name": "Conv2D", "inbound_nodes": [[["leaky_re_lu_2", 0, 0, {}]]], "config": {"kernel_initializer": {"class_name": "VarianceScaling", "config": {"distribution": "uniform", "scale": 1.0, "seed": null, "mode": "fan_avg"}}, "bias_initializer": {"class_name": "Zeros", "config": {}}, "kernel_constraint": null, "bias_regularizer": null, "bias_constraint": null, "activity_regularizer": null, "trainable": true, "data_format": "channels_last", "padding": "same", "strides": [1, 1], "dilation_rate": [1, 1], "kernel_regularizer": {"class_name": "L1L2", "config": {"l2": 0.0005000000237487257, "l1": 0.0}}, "filters": 32, "use_bias": false, "activation": "linear", "kernel_size": [1, 1], "name": "conv2d_3"}, "name": "conv2d_3"}, {"class_name": "BatchNormalization", "inbound_nodes": [[["conv2d_3", 0, 0, {}]]], "config": {"beta_constraint": null, "gamma_initializer": {"class_name": "Ones", "config": {}}, "moving_mean_initializer": {"class_name": "Zeros", "config": {}}, "name": "batch_normalization_3", "epsilon": 0.001, "trainable": true, "moving_variance_initializer": {"class_name": "Ones", "config": {}}, "beta_initializer": {"class_name": "Zeros", "config": {}}, "gamma_constraint": null, "scale": true, "gamma_regularizer": null, "axis": -1, "beta_regularizer": null, "momentum": 0.99, "center": true}, "name": "batch_normalization_3"}, {"class_name": "LeakyReLU", "inbound_nodes": [[["batch_normalization_3", 0, 0, {}]]], "config": {"alpha": 0.10000000149011612, "trainable": true, "name": "leaky_re_lu_3"}, "name": "leaky_re_lu_3"}, {"class_name": "Conv2D", "inbound_nodes": [[["leaky_re_lu_3", 0, 0, {}]]], "config": {"kernel_initializer": {"class_name": "VarianceScaling", "config": {"distribution": "uniform", "scale": 1.0, "seed": null, "mode": "fan_avg"}}, "bias_initializer": {"class_name": "Zeros", "config": {}}, "kernel_constraint": null, "bias_regularizer": null, "bias_constraint": null, "activity_regularizer": null, "trainable": true, "data_format": "channels_last", "padding": "same", "strides": [1, 1], "dilation_rate": [1, 1], "kernel_regularizer": {"class_name": "L1L2", "config": {"l2": 0.0005000000237487257, "l1": 0.0}}, "filters": 64, "use_bias": false, "activation": "linear", "kernel_size": [3, 3], "name": "conv2d_4"}, "name": "conv2d_4"}, {"class_name": "BatchNormalization", "inbound_nodes": [[["conv2d_4", 0, 0, {}]]], "config": {"beta_constraint": null, "gamma_initializer": {"class_name": "Ones", "config": {}}, "moving_mean_initializer": {"class_name": "Zeros", "config": {}}, "name": "batch_normalization_4", "epsilon": 0.001, "trainable": true, "moving_variance_initializer": {"class_name": "Ones", "config": {}}, "beta_initializer": {"class_name": "Zeros", "config": {}}, "gamma_constraint": null, "scale": true, "gamma_regularizer": null, "axis": -1, "beta_regularizer": null, "momentum": 0.99, "center": true}, "name": "batch_normalization_4"}, {"class_name": "LeakyReLU", "inbound_nodes": [[["batch_normalization_4", 0, 0, {}]]], "config": {"alpha": 0.10000000149011612, "trainable": true, "name": "leaky_re_lu_4"}, "name": "leaky_re_lu_4"}, {"class_name": "Add", "inbound_nodes": [[["leaky_re_lu_2", 0, 0, {}], ["leaky_re_lu_4", 0, 0, {}]]], "config": {"trainable": true, "name": "add_1"}, "name": "add_1"}, {"class_name": "ZeroPadding2D", "inbound_nodes": [[["add_1", 0, 0, {}]]], "config": {"padding": [[1, 0], [1, 0]], "trainable": true, "name": "zero_padding2d_2", "data_format": "channels_last"}, "name": "zero_padding2d_2"}, {"class_name": "Conv2D", "inbound_nodes": [[["zero_padding2d_2", 0, 0, {}]]], "config": {"kernel_initializer": {"class_name": "VarianceScaling", "config": {"distribution": "uniform", "scale": 1.0, "seed": null, "mode": "fan_avg"}}, "bias_initializer": {"class_name": "Zeros", "config": {}}, "kernel_constraint": null, "bias_regularizer": null, "bias_constraint": null, "activity_regularizer": null, "trainable": true, "data_format": "channels_last", "padding": "valid", "strides": [2, 2], "dilation_rate": [1, 1], "kernel_regularizer": {"class_name": "L1L2", "config": {"l2": 0.0005000000237487257, "l1": 0.0}}, "filters": 128, "use_bias": false, "activation": "linear", "kernel_size": [3, 3], "name": "conv2d_5"}, "name": "conv2d_5"}, {"class_name": "BatchNormalization", "inbound_nodes": [[["conv2d_5", 0, 0, {}]]], "config": {"beta_constraint": null, "gamma_initializer": {"class_name": "Ones", "config": {}}, "moving_mean_initializer": {"class_name": "Zeros", "config": {}}, "name": "batch_normalization_5", "epsilon": 0.001, "trainable": true, "moving_variance_initializer": {"class_name": "Ones", "config": {}}, "beta_initializer": {"class_name": "Zeros", "config": {}}, "gamma_constraint": null, "scale": true, "gamma_regularizer": null, "axis": -1, "beta_regularizer": null, "momentum": 0.99, "center": true}, "name": "batch_normalization_5"}, {"class_name": "LeakyReLU", "inbound_nodes": [[["batch_normalization_5", 0, 0, {}]]], "config": {"alpha": 0.10000000149011612, "trainable": true, "name": "leaky_re_lu_5"}, "name": "leaky_re_lu_5"}, {"class_name": "Conv2D", "inbound_nodes": [[["leaky_re_lu_5", 0, 0, {}]]], "config": {"kernel_initializer": {"class_name": "VarianceScaling", "config": {"distribution": "uniform", "scale": 1.0, "seed": null, "mode": "fan_avg"}}, "bias_initializer": {"class_name": "Zeros", "config": {}}, "kernel_constraint": null, "bias_regularizer": null, "bias_constraint": null, "activity_regularizer": null, "trainable": true, "data_format": "channels_last", "padding": "same", "strides": [1, 1], "dilation_rate": [1, 1], "kernel_regularizer": {"class_name": "L1L2", "config": {"l2": 0.0005000000237487257, "l1": 0.0}}, "filters": 64, "use_bias": false, "activation": "linear", "kernel_size": [1, 1], "name": "conv2d_6"}, "name": "conv2d_6"}, {"class_name": "BatchNormalization", "inbound_nodes": [[["conv2d_6", 0, 0, {}]]], "config": {"beta_constraint": null, "gamma_initializer": {"class_name": "Ones", "config": {}}, "moving_mean_initializer": {"class_name": "Zeros", "config": {}}, "name": "batch_normalization_6", "epsilon": 0.001, "trainable": true, "moving_variance_initializer": {"class_name": "Ones", "config": {}}, "beta_initializer": {"class_name": "Zeros", "config": {}}, "gamma_constraint": null, "scale": true, "gamma_regularizer": null, "axis": -1, "beta_regularizer": null, "momentum": 0.99, "center": true}, "name": "batch_normalization_6"}, {"class_name": "LeakyReLU", "inbound_nodes": [[["batch_normalization_6", 0, 0, {}]]], "config": {"alpha": 0.10000000149011612, "trainable": true, "name": "leaky_re_lu_6"}, "name": "leaky_re_lu_6"}, {"class_name": "Conv2D", "inbound_nodes": [[["leaky_re_lu_6", 0, 0, {}]]], "config": {"kernel_initializer": {"class_name": "VarianceScaling", "config": {"distribution": "uniform", "scale": 1.0, "seed": null, "mode": "fan_avg"}}, "bias_initializer": {"class_name": "Zeros", "config": {}}, "kernel_constraint": null, "bias_regularizer": null, "bias_constraint": null, "activity_regularizer": null, "trainable": true, "data_format": "channels_last", "padding": "same", "strides": [1, 1], "dilation_rate": [1, 1], "kernel_regularizer": {"class_name": "L1L2", "config": {"l2": 0.0005000000237487257, "l1": 0.0}}, "filters": 128, "use_bias": false, "activation": "linear", "kernel_size": [3, 3], "name": "conv2d_7"}, "name": "conv2d_7"}, {"class_name": "BatchNormalization", "inbound_nodes": [[["conv2d_7", 0, 0, {}]]], "config": {"beta_constraint": null, "gamma_initializer": {"class_name": "Ones", "config": {}}, "moving_mean_initializer": {"class_name": "Zeros", "config": {}}, "name": "batch_normalization_7", "epsilon": 0.001, "trainable": true, "moving_variance_initializer": {"class_name": "Ones", "config": {}}, "beta_initializer": {"class_name": "Zeros", "config": {}}, "gamma_constraint": null, "scale": true, "gamma_regularizer": null, "axis": -1, "beta_regularizer": null, "momentum": 0.99, "center": true}, "name": "batch_normalization_7"}, {"class_name": "LeakyReLU", "inbound_nodes": [[["batch_normalization_7", 0, 0, {}]]], "config": {"alpha": 0.10000000149011612, "trainable": true, "name": "leaky_re_lu_7"}, "name": "leaky_re_lu_7"}, {"class_name": "Add", "inbound_nodes": [[["leaky_re_lu_5", 0, 0, {}], ["leaky_re_lu_7", 0, 0, {}]]], "config": {"trainable": true, "name": "add_2"}, "name": "add_2"}, {"class_name": "Conv2D", "inbound_nodes": [[["add_2", 0, 0, {}]]], "config": {"kernel_initializer": {"class_name": "VarianceScaling", "config": {"distribution": "uniform", "scale": 1.0, "seed": null, "mode": "fan_avg"}}, "bias_initializer": {"class_name": "Zeros", "config": {}}, "kernel_constraint": null, "bias_regularizer": null, "bias_constraint": null, "activity_regularizer": null, "trainable": true, "data_format": "channels_last", "padding": "same", "strides": [1, 1], "dilation_rate": [1, 1], "kernel_regularizer": {"class_name": "L1L2", "config": {"l2": 0.0005000000237487257, "l1": 0.0}}, "filters": 64, "use_bias": false, "activation": "linear", "kernel_size": [1, 1], "name": "conv2d_8"}, "name": "conv2d_8"}, {"class_name": "BatchNormalization", "inbound_nodes": [[["conv2d_8", 0, 0, {}]]], "config": {"beta_constraint": null, "gamma_initializer": {"class_name": "Ones", "config": {}}, "moving_mean_initializer": {"class_name": "Zeros", "config": {}}, "name": "batch_normalization_8", "epsilon": 0.001, "trainable": true, "moving_variance_initializer": {"class_name": "Ones", "config": {}}, "beta_initializer": {"class_name": "Zeros", "config": {}}, "gamma_constraint": null, "scale": true, "gamma_regularizer": null, "axis": -1, "beta_regularizer": null, "momentum": 0.99, "center": true}, "name": "batch_normalization_8"}, {"class_name": "LeakyReLU", "inbound_nodes": [[["batch_normalization_8", 0, 0, {}]]], "config": {"alpha": 0.10000000149011612, "trainable": true, "name": "leaky_re_lu_8"}, "name": "leaky_re_lu_8"}, {"class_name": "Conv2D", "inbound_nodes": [[["leaky_re_lu_8", 0, 0, {}]]], "config": {"kernel_initializer": {"class_name": "VarianceScaling", "config": {"distribution": "uniform", "scale": 1.0, "seed": null, "mode": "fan_avg"}}, "bias_initializer": {"class_name": "Zeros", "config": {}}, "kernel_constraint": null, "bias_regularizer": null, "bias_constraint": null, "activity_regularizer": null, "trainable": true, "data_format": "channels_last", "padding": "same", "strides": [1, 1], "dilation_rate": [1, 1], "kernel_regularizer": {"class_name": "L1L2", "config": {"l2": 0.0005000000237487257, "l1": 0.0}}, "filters": 128, "use_bias": false, "activation": "linear", "kernel_size": [3, 3], "name": "conv2d_9"}, "name": "conv2d_9"}, {"class_name": "BatchNormalization", "inbound_nodes": [[["conv2d_9", 0, 0, {}]]], "config": {"beta_constraint": null, "gamma_initializer": {"class_name": "Ones", "config": {}}, "moving_mean_initializer": {"class_name": "Zeros", "config": {}}, "name": "batch_normalization_9", "epsilon": 0.001, "trainable": true, "moving_variance_initializer": {"class_name": "Ones", "config": {}}, "beta_initializer": {"class_name": "Zeros", "config": {}}, "gamma_constraint": null, "scale": true, "gamma_regularizer": null, "axis": -1, "beta_regularizer": null, "momentum": 0.99, "center": true}, "name": "batch_normalization_9"}, {"class_name": "LeakyReLU", "inbound_nodes": [[["batch_normalization_9", 0, 0, {}]]], "config": {"alpha": 0.10000000149011612, "trainable": true, "name": "leaky_re_lu_9"}, "name": "leaky_re_lu_9"}, {"class_name": "Add", "inbound_nodes": [[["add_2", 0, 0, {}], ["leaky_re_lu_9", 0, 0, {}]]], "config": {"trainable": true, "name": "add_3"}, "name": "add_3"}, {"class_name": "ZeroPadding2D", "inbound_nodes": [[["add_3", 0, 0, {}]]], "config": {"padding": [[1, 0], [1, 0]], "trainable": true, "name": "zero_padding2d_3", "data_format": "channels_last"}, "name": "zero_padding2d_3"}, {"class_name": "Conv2D", "inbound_nodes": [[["zero_padding2d_3", 0, 0, {}]]], "config": {"kernel_initializer": {"class_name": "VarianceScaling", "config": {"distribution": "uniform", "scale": 1.0, "seed": null, "mode": "fan_avg"}}, "bias_initializer": {"class_name": "Zeros", "config": {}}, "kernel_constraint": null, "bias_regularizer": null, "bias_constraint": null, "activity_regularizer": null, "trainable": true, "data_format": "channels_last", "padding": "valid", "strides": [2, 2], "dilation_rate": [1, 1], "kernel_regularizer": {"class_name": "L1L2", "config": {"l2": 0.0005000000237487257, "l1": 0.0}}, "filters": 256, "use_bias": false, "activation": "linear", "kernel_size": [3, 3], "name": "conv2d_10"}, "name": "conv2d_10"}, {"class_name": "BatchNormalization", "inbound_nodes": [[["conv2d_10", 0, 0, {}]]], "config": {"beta_constraint": null, "gamma_initializer": {"class_name": "Ones", "config": {}}, "moving_mean_initializer": {"class_name": "Zeros", "config": {}}, "name": "batch_normalization_10", "epsilon": 0.001, "trainable": true, "moving_variance_initializer": {"class_name": "Ones", "config": {}}, "beta_initializer": {"class_name": "Zeros", "config": {}}, "gamma_constraint": null, "scale": true, "gamma_regularizer": null, "axis": -1, "beta_regularizer": null, "momentum": 0.99, "center": true}, "name": "batch_normalization_10"}, {"class_name": "LeakyReLU", "inbound_nodes": [[["batch_normalization_10", 0, 0, {}]]], "config": {"alpha": 0.10000000149011612, "trainable": true, "name": "leaky_re_lu_10"}, "name": "leaky_re_lu_10"}, {"class_name": "Conv2D", "inbound_nodes": [[["leaky_re_lu_10", 0, 0, {}]]], "config": {"kernel_initializer": {"class_name": "VarianceScaling", "config": {"distribution": "uniform", "scale": 1.0, "seed": null, "mode": "fan_avg"}}, "bias_initializer": {"class_name": "Zeros", "config": {}}, "kernel_constraint": null, "bias_regularizer": null, "bias_constraint": null, "activity_regularizer": null, "trainable": true, "data_format": "channels_last", "padding": "same", "strides": [1, 1], "dilation_rate": [1, 1], "kernel_regularizer": {"class_name": "L1L2", "config": {"l2": 0.0005000000237487257, "l1": 0.0}}, "filters": 128, "use_bias": false, "activation": "linear", "kernel_size": [1, 1], "name": "conv2d_11"}, "name": "conv2d_11"}, {"class_name": "BatchNormalization", "inbound_nodes": [[["conv2d_11", 0, 0, {}]]], "config": {"beta_constraint": null, "gamma_initializer": {"class_name": "Ones", "config": {}}, "moving_mean_initializer": {"class_name": "Zeros", "config": {}}, "name": "batch_normalization_11", "epsilon": 0.001, "trainable": true, "moving_variance_initializer": {"class_name": "Ones", "config": {}}, "beta_initializer": {"class_name": "Zeros", "config": {}}, "gamma_constraint": null, "scale": true, "gamma_regularizer": null, "axis": -1, "beta_regularizer": null, "momentum": 0.99, "center": true}, "name": "batch_normalization_11"}, {"class_name": "LeakyReLU", "inbound_nodes": [[["batch_normalization_11", 0, 0, {}]]], "config": {"alpha": 0.10000000149011612, "trainable": true, "name": "leaky_re_lu_11"}, "name": "leaky_re_lu_11"}, {"class_name": "Conv2D", "inbound_nodes": [[["leaky_re_lu_11", 0, 0, {}]]], "config": {"kernel_initializer": {"class_name": "VarianceScaling", "config": {"distribution": "uniform", "scale": 1.0, "seed": null, "mode": "fan_avg"}}, "bias_initializer": {"class_name": "Zeros", "config": {}}, "kernel_constraint": null, "bias_regularizer": null, "bias_constraint": null, "activity_regularizer": null, "trainable": true, "data_format": "channels_last", "padding": "same", "strides": [1, 1], "dilation_rate": [1, 1], "kernel_regularizer": {"class_name": "L1L2", "config": {"l2": 0.0005000000237487257, "l1": 0.0}}, "filters": 256, "use_bias": false, "activation": "linear", "kernel_size": [3, 3], "name": "conv2d_12"}, "name": "conv2d_12"}, {"class_name": "BatchNormalization", "inbound_nodes": [[["conv2d_12", 0, 0, {}]]], "config": {"beta_constraint": null, "gamma_initializer": {"class_name": "Ones", "config": {}}, "moving_mean_initializer": {"class_name": "Zeros", "config": {}}, "name": "batch_normalization_12", "epsilon": 0.001, "trainable": true, "moving_variance_initializer": {"class_name": "Ones", "config": {}}, "beta_initializer": {"class_name": "Zeros", "config": {}}, "gamma_constraint": null, "scale": true, "gamma_regularizer": null, "axis": -1, "beta_regularizer": null, "momentum": 0.99, "center": true}, "name": "batch_normalization_12"}, {"class_name": "LeakyReLU", "inbound_nodes": [[["batch_normalization_12", 0, 0, {}]]], "config": {"alpha": 0.10000000149011612, "trainable": true, "name": "leaky_re_lu_12"}, "name": "leaky_re_lu_12"}, {"class_name": "Add", "inbound_nodes": [[["leaky_re_lu_10", 0, 0, {}], ["leaky_re_lu_12", 0, 0, {}]]], "config": {"trainable": true, "name": "add_4"}, "name": "add_4"}, {"class_name": "Conv2D", "inbound_nodes": [[["add_4", 0, 0, {}]]], "config": {"kernel_initializer": {"class_name": "VarianceScaling", "config": {"distribution": "uniform", "scale": 1.0, "seed": null, "mode": "fan_avg"}}, "bias_initializer": {"class_name": "Zeros", "config": {}}, "kernel_constraint": null, "bias_regularizer": null, "bias_constraint": null, "activity_regularizer": null, "trainable": true, "data_format": "channels_last", "padding": "same", "strides": [1, 1], "dilation_rate": [1, 1], "kernel_regularizer": {"class_name": "L1L2", "config": {"l2": 0.0005000000237487257, "l1": 0.0}}, "filters": 128, "use_bias": false, "activation": "linear", "kernel_size": [1, 1], "name": "conv2d_13"}, "name": "conv2d_13"}, {"class_name": "BatchNormalization", "inbound_nodes": [[["conv2d_13", 0, 0, {}]]], "config": {"beta_constraint": null, "gamma_initializer": {"class_name": "Ones", "config": {}}, "moving_mean_initializer": {"class_name": "Zeros", "config": {}}, "name": "batch_normalization_13", "epsilon": 0.001, "trainable": true, "moving_variance_initializer": {"class_name": "Ones", "config": {}}, "beta_initializer": {"class_name": "Zeros", "config": {}}, "gamma_constraint": null, "scale": true, "gamma_regularizer": null, "axis": -1, "beta_regularizer": null, "momentum": 0.99, "center": true}, "name": "batch_normalization_13"}, {"class_name": "LeakyReLU", "inbound_nodes": [[["batch_normalization_13", 0, 0, {}]]], "config": {"alpha": 0.10000000149011612, "trainable": true, "name": "leaky_re_lu_13"}, "name": "leaky_re_lu_13"}, {"class_name": "Conv2D", "inbound_nodes": [[["leaky_re_lu_13", 0, 0, {}]]], "config": {"kernel_initializer": {"class_name": "VarianceScaling", "config": {"distribution": "uniform", "scale": 1.0, "seed": null, "mode": "fan_avg"}}, "bias_initializer": {"class_name": "Zeros", "config": {}}, "kernel_constraint": null, "bias_regularizer": null, "bias_constraint": null, "activity_regularizer": null, "trainable": true, "data_format": "channels_last", "padding": "same", "strides": [1, 1], "dilation_rate": [1, 1], "kernel_regularizer": {"class_name": "L1L2", "config": {"l2": 0.0005000000237487257, "l1": 0.0}}, "filters": 256, "use_bias": false, "activation": "linear", "kernel_size": [3, 3], "name": "conv2d_14"}, "name": "conv2d_14"}, {"class_name": "BatchNormalization", "inbound_nodes": [[["conv2d_14", 0, 0, {}]]], "config": {"beta_constraint": null, "gamma_initializer": {"class_name": "Ones", "config": {}}, "moving_mean_initializer": {"class_name": "Zeros", "config": {}}, "name": "batch_normalization_14", "epsilon": 0.001, "trainable": true, "moving_variance_initializer": {"class_name": "Ones", "config": {}}, "beta_initializer": {"class_name": "Zeros", "config": {}}, "gamma_constraint": null, "scale": true, "gamma_regularizer": null, "axis": -1, "beta_regularizer": null, "momentum": 0.99, "center": true}, "name": "batch_normalization_14"}, {"class_name": "LeakyReLU", "inbound_nodes": [[["batch_normalization_14", 0, 0, {}]]], "config": {"alpha": 0.10000000149011612, "trainable": true, "name": "leaky_re_lu_14"}, "name": "leaky_re_lu_14"}, {"class_name": "Add", "inbound_nodes": [[["add_4", 0, 0, {}], ["leaky_re_lu_14", 0, 0, {}]]], "config": {"trainable": true, "name": "add_5"}, "name": "add_5"}, {"class_name": "Conv2D", "inbound_nodes": [[["add_5", 0, 0, {}]]], "config": {"kernel_initializer": {"class_name": "VarianceScaling", "config": {"distribution": "uniform", "scale": 1.0, "seed": null, "mode": "fan_avg"}}, "bias_initializer": {"class_name": "Zeros", "config": {}}, "kernel_constraint": null, "bias_regularizer": null, "bias_constraint": null, "activity_regularizer": null, "trainable": true, "data_format": "channels_last", "padding": "same", "strides": [1, 1], "dilation_rate": [1, 1], "kernel_regularizer": {"class_name": "L1L2", "config": {"l2": 0.0005000000237487257, "l1": 0.0}}, "filters": 128, "use_bias": false, "activation": "linear", "kernel_size": [1, 1], "name": "conv2d_15"}, "name": "conv2d_15"}, {"class_name": "BatchNormalization", "inbound_nodes": [[["conv2d_15", 0, 0, {}]]], "config": {"beta_constraint": null, "gamma_initializer": {"class_name": "Ones", "config": {}}, "moving_mean_initializer": {"class_name": "Zeros", "config": {}}, "name": "batch_normalization_15", "epsilon": 0.001, "trainable": true, "moving_variance_initializer": {"class_name": "Ones", "config": {}}, "beta_initializer": {"class_name": "Zeros", "config": {}}, "gamma_constraint": null, "scale": true, "gamma_regularizer": null, "axis": -1, "beta_regularizer": null, "momentum": 0.99, "center": true}, "name": "batch_normalization_15"}, {"class_name": "LeakyReLU", "inbound_nodes": [[["batch_normalization_15", 0, 0, {}]]], "config": {"alpha": 0.10000000149011612, "trainable": true, "name": "leaky_re_lu_15"}, "name": "leaky_re_lu_15"}, {"class_name": "Conv2D", "inbound_nodes": [[["leaky_re_lu_15", 0, 0, {}]]], "config": {"kernel_initializer": {"class_name": "VarianceScaling", "config": {"distribution": "uniform", "scale": 1.0, "seed": null, "mode": "fan_avg"}}, "bias_initializer": {"class_name": "Zeros", "config": {}}, "kernel_constraint": null, "bias_regularizer": null, "bias_constraint": null, "activity_regularizer": null, "trainable": true, "data_format": "channels_last", "padding": "same", "strides": [1, 1], "dilation_rate": [1, 1], "kernel_regularizer": {"class_name": "L1L2", "config": {"l2": 0.0005000000237487257, "l1": 0.0}}, "filters": 256, "use_bias": false, "activation": "linear", "kernel_size": [3, 3], "name": "conv2d_16"}, "name": "conv2d_16"}, {"class_name": "BatchNormalization", "inbound_nodes": [[["conv2d_16", 0, 0, {}]]], "config": {"beta_constraint": null, "gamma_initializer": {"class_name": "Ones", "config": {}}, "moving_mean_initializer": {"class_name": "Zeros", "config": {}}, "name": "batch_normalization_16", "epsilon": 0.001, "trainable": true, "moving_variance_initializer": {"class_name": "Ones", "config": {}}, "beta_initializer": {"class_name": "Zeros", "config": {}}, "gamma_constraint": null, "scale": true, "gamma_regularizer": null, "axis": -1, "beta_regularizer": null, "momentum": 0.99, "center": true}, "name": "batch_normalization_16"}, {"class_name": "LeakyReLU", "inbound_nodes": [[["batch_normalization_16", 0, 0, {}]]], "config": {"alpha": 0.10000000149011612, "trainable": true, "name": "leaky_re_lu_16"}, "name": "leaky_re_lu_16"}, {"class_name": "Add", "inbound_nodes": [[["add_5", 0, 0, {}], ["leaky_re_lu_16", 0, 0, {}]]], "config": {"trainable": true, "name": "add_6"}, "name": "add_6"}, {"class_name": "Conv2D", "inbound_nodes": [[["add_6", 0, 0, {}]]], "config": {"kernel_initializer": {"class_name": "VarianceScaling", "config": {"distribution": "uniform", "scale": 1.0, "seed": null, "mode": "fan_avg"}}, "bias_initializer": {"class_name": "Zeros", "config": {}}, "kernel_constraint": null, "bias_regularizer": null, "bias_constraint": null, "activity_regularizer": null, "trainable": true, "data_format": "channels_last", "padding": "same", "strides": [1, 1], "dilation_rate": [1, 1], "kernel_regularizer": {"class_name": "L1L2", "config": {"l2": 0.0005000000237487257, "l1": 0.0}}, "filters": 128, "use_bias": false, "activation": "linear", "kernel_size": [1, 1], "name": "conv2d_17"}, "name": "conv2d_17"}, {"class_name": "BatchNormalization", "inbound_nodes": [[["conv2d_17", 0, 0, {}]]], "config": {"beta_constraint": null, "gamma_initializer": {"class_name": "Ones", "config": {}}, "moving_mean_initializer": {"class_name": "Zeros", "config": {}}, "name": "batch_normalization_17", "epsilon": 0.001, "trainable": true, "moving_variance_initializer": {"class_name": "Ones", "config": {}}, "beta_initializer": {"class_name": "Zeros", "config": {}}, "gamma_constraint": null, "scale": true, "gamma_regularizer": null, "axis": -1, "beta_regularizer": null, "momentum": 0.99, "center": true}, "name": "batch_normalization_17"}, {"class_name": "LeakyReLU", "inbound_nodes": [[["batch_normalization_17", 0, 0, {}]]], "config": {"alpha": 0.10000000149011612, "trainable": true, "name": "leaky_re_lu_17"}, "name": "leaky_re_lu_17"}, {"class_name": "Conv2D", "inbound_nodes": [[["leaky_re_lu_17", 0, 0, {}]]], "config": {"kernel_initializer": {"class_name": "VarianceScaling", "config": {"distribution": "uniform", "scale": 1.0, "seed": null, "mode": "fan_avg"}}, "bias_initializer": {"class_name": "Zeros", "config": {}}, "kernel_constraint": null, "bias_regularizer": null, "bias_constraint": null, "activity_regularizer": null, "trainable": true, "data_format": "channels_last", "padding": "same", "strides": [1, 1], "dilation_rate": [1, 1], "kernel_regularizer": {"class_name": "L1L2", "config": {"l2": 0.0005000000237487257, "l1": 0.0}}, "filters": 256, "use_bias": false, "activation": "linear", "kernel_size": [3, 3], "name": "conv2d_18"}, "name": "conv2d_18"}, {"class_name": "BatchNormalization", "inbound_nodes": [[["conv2d_18", 0, 0, {}]]], "config": {"beta_constraint": null, "gamma_initializer": {"class_name": "Ones", "config": {}}, "moving_mean_initializer": {"class_name": "Zeros", "config": {}}, "name": "batch_normalization_18", "epsilon": 0.001, "trainable": true, "moving_variance_initializer": {"class_name": "Ones", "config": {}}, "beta_initializer": {"class_name": "Zeros", "config": {}}, "gamma_constraint": null, "scale": true, "gamma_regularizer": null, "axis": -1, "beta_regularizer": null, "momentum": 0.99, "center": true}, "name": "batch_normalization_18"}, {"class_name": "LeakyReLU", "inbound_nodes": [[["batch_normalization_18", 0, 0, {}]]], "config": {"alpha": 0.10000000149011612, "trainable": true, "name": "leaky_re_lu_18"}, "name": "leaky_re_lu_18"}, {"class_name": "Add", "inbound_nodes": [[["add_6", 0, 0, {}], ["leaky_re_lu_18", 0, 0, {}]]], "config": {"trainable": true, "name": "add_7"}, "name": "add_7"}, {"class_name": "Conv2D", "inbound_nodes": [[["add_7", 0, 0, {}]]], "config": {"kernel_initializer": {"class_name": "VarianceScaling", "config": {"distribution": "uniform", "scale": 1.0, "seed": null, "mode": "fan_avg"}}, "bias_initializer": {"class_name": "Zeros", "config": {}}, "kernel_constraint": null, "bias_regularizer": null, "bias_constraint": null, "activity_regularizer": null, "trainable": true, "data_format": "channels_last", "padding": "same", "strides": [1, 1], "dilation_rate": [1, 1], "kernel_regularizer": {"class_name": "L1L2", "config": {"l2": 0.0005000000237487257, "l1": 0.0}}, "filters": 128, "use_bias": false, "activation": "linear", "kernel_size": [1, 1], "name": "conv2d_19"}, "name": "conv2d_19"}, {"class_name": "BatchNormalization", "inbound_nodes": [[["conv2d_19", 0, 0, {}]]], "config": {"beta_constraint": null, "gamma_initializer": {"class_name": "Ones", "config": {}}, "moving_mean_initializer": {"class_name": "Zeros", "config": {}}, "name": "batch_normalization_19", "epsilon": 0.001, "trainable": true, "moving_variance_initializer": {"class_name": "Ones", "config": {}}, "beta_initializer": {"class_name": "Zeros", "config": {}}, "gamma_constraint": null, "scale": true, "gamma_regularizer": null, "axis": -1, "beta_regularizer": null, "momentum": 0.99, "center": true}, "name": "batch_normalization_19"}, {"class_name": "LeakyReLU", "inbound_nodes": [[["batch_normalization_19", 0, 0, {}]]], "config": {"alpha": 0.10000000149011612, "trainable": true, "name": "leaky_re_lu_19"}, "name": "leaky_re_lu_19"}, {"class_name": "Conv2D", "inbound_nodes": [[["leaky_re_lu_19", 0, 0, {}]]], "config": {"kernel_initializer": {"class_name": "VarianceScaling", "config": {"distribution": "uniform", "scale": 1.0, "seed": null, "mode": "fan_avg"}}, "bias_initializer": {"class_name": "Zeros", "config": {}}, "kernel_constraint": null, "bias_regularizer": null, "bias_constraint": null, "activity_regularizer": null, "trainable": true, "data_format": "channels_last", "padding": "same", "strides": [1, 1], "dilation_rate": [1, 1], "kernel_regularizer": {"class_name": "L1L2", "config": {"l2": 0.0005000000237487257, "l1": 0.0}}, "filters": 256, "use_bias": false, "activation": "linear", "kernel_size": [3, 3], "name": "conv2d_20"}, "name": "conv2d_20"}, {"class_name": "BatchNormalization", "inbound_nodes": [[["conv2d_20", 0, 0, {}]]], "config": {"beta_constraint": null, "gamma_initializer": {"class_name": "Ones", "config": {}}, "moving_mean_initializer": {"class_name": "Zeros", "config": {}}, "name": "batch_normalization_20", "epsilon": 0.001, "trainable": true, "moving_variance_initializer": {"class_name": "Ones", "config": {}}, "beta_initializer": {"class_name": "Zeros", "config": {}}, "gamma_constraint": null, "scale": true, "gamma_regularizer": null, "axis": -1, "beta_regularizer": null, "momentum": 0.99, "center": true}, "name": "batch_normalization_20"}, {"class_name": "LeakyReLU", "inbound_nodes": [[["batch_normalization_20", 0, 0, {}]]], "config": {"alpha": 0.10000000149011612, "trainable": true, "name": "leaky_re_lu_20"}, "name": "leaky_re_lu_20"}, {"class_name": "Add", "inbound_nodes": [[["add_7", 0, 0, {}], ["leaky_re_lu_20", 0, 0, {}]]], "config": {"trainable": true, "name": "add_8"}, "name": "add_8"}, {"class_name": "Conv2D", "inbound_nodes": [[["add_8", 0, 0, {}]]], "config": {"kernel_initializer": {"class_name": "VarianceScaling", "config": {"distribution": "uniform", "scale": 1.0, "seed": null, "mode": "fan_avg"}}, "bias_initializer": {"class_name": "Zeros", "config": {}}, "kernel_constraint": null, "bias_regularizer": null, "bias_constraint": null, "activity_regularizer": null, "trainable": true, "data_format": "channels_last", "padding": "same", "strides": [1, 1], "dilation_rate": [1, 1], "kernel_regularizer": {"class_name": "L1L2", "config": {"l2": 0.0005000000237487257, "l1": 0.0}}, "filters": 128, "use_bias": false, "activation": "linear", "kernel_size": [1, 1], "name": "conv2d_21"}, "name": "conv2d_21"}, {"class_name": "BatchNormalization", "inbound_nodes": [[["conv2d_21", 0, 0, {}]]], "config": {"beta_constraint": null, "gamma_initializer": {"class_name": "Ones", "config": {}}, "moving_mean_initializer": {"class_name": "Zeros", "config": {}}, "name": "batch_normalization_21", "epsilon": 0.001, "trainable": true, "moving_variance_initializer": {"class_name": "Ones", "config": {}}, "beta_initializer": {"class_name": "Zeros", "config": {}}, "gamma_constraint": null, "scale": true, "gamma_regularizer": null, "axis": -1, "beta_regularizer": null, "momentum": 0.99, "center": true}, "name": "batch_normalization_21"}, {"class_name": "LeakyReLU", "inbound_nodes": [[["batch_normalization_21", 0, 0, {}]]], "config": {"alpha": 0.10000000149011612, "trainable": true, "name": "leaky_re_lu_21"}, "name": "leaky_re_lu_21"}, {"class_name": "Conv2D", "inbound_nodes": [[["leaky_re_lu_21", 0, 0, {}]]], "config": {"kernel_initializer": {"class_name": "VarianceScaling", "config": {"distribution": "uniform", "scale": 1.0, "seed": null, "mode": "fan_avg"}}, "bias_initializer": {"class_name": "Zeros", "config": {}}, "kernel_constraint": null, "bias_regularizer": null, "bias_constraint": null, "activity_regularizer": null, "trainable": true, "data_format": "channels_last", "padding": "same", "strides": [1, 1], "dilation_rate": [1, 1], "kernel_regularizer": {"class_name": "L1L2", "config": {"l2": 0.0005000000237487257, "l1": 0.0}}, "filters": 256, "use_bias": false, "activation": "linear", "kernel_size": [3, 3], "name": "conv2d_22"}, "name": "conv2d_22"}, {"class_name": "BatchNormalization", "inbound_nodes": [[["conv2d_22", 0, 0, {}]]], "config": {"beta_constraint": null, "gamma_initializer": {"class_name": "Ones", "config": {}}, "moving_mean_initializer": {"class_name": "Zeros", "config": {}}, "name": "batch_normalization_22", "epsilon": 0.001, "trainable": true, "moving_variance_initializer": {"class_name": "Ones", "config": {}}, "beta_initializer": {"class_name": "Zeros", "config": {}}, "gamma_constraint": null, "scale": true, "gamma_regularizer": null, "axis": -1, "beta_regularizer": null, "momentum": 0.99, "center": true}, "name": "batch_normalization_22"}, {"class_name": "LeakyReLU", "inbound_nodes": [[["batch_normalization_22", 0, 0, {}]]], "config": {"alpha": 0.10000000149011612, "trainable": true, "name": "leaky_re_lu_22"}, "name": "leaky_re_lu_22"}, {"class_name": "Add", "inbound_nodes": [[["add_8", 0, 0, {}], ["leaky_re_lu_22", 0, 0, {}]]], "config": {"trainable": true, "name": "add_9"}, "name": "add_9"}, {"class_name": "Conv2D", "inbound_nodes": [[["add_9", 0, 0, {}]]], "config": {"kernel_initializer": {"class_name": "VarianceScaling", "config": {"distribution": "uniform", "scale": 1.0, "seed": null, "mode": "fan_avg"}}, "bias_initializer": {"class_name": "Zeros", "config": {}}, "kernel_constraint": null, "bias_regularizer": null, "bias_constraint": null, "activity_regularizer": null, "trainable": true, "data_format": "channels_last", "padding": "same", "strides": [1, 1], "dilation_rate": [1, 1], "kernel_regularizer": {"class_name": "L1L2", "config": {"l2": 0.0005000000237487257, "l1": 0.0}}, "filters": 128, "use_bias": false, "activation": "linear", "kernel_size": [1, 1], "name": "conv2d_23"}, "name": "conv2d_23"}, {"class_name": "BatchNormalization", "inbound_nodes": [[["conv2d_23", 0, 0, {}]]], "config": {"beta_constraint": null, "gamma_initializer": {"class_name": "Ones", "config": {}}, "moving_mean_initializer": {"class_name": "Zeros", "config": {}}, "name": "batch_normalization_23", "epsilon": 0.001, "trainable": true, "moving_variance_initializer": {"class_name": "Ones", "config": {}}, "beta_initializer": {"class_name": "Zeros", "config": {}}, "gamma_constraint": null, "scale": true, "gamma_regularizer": null, "axis": -1, "beta_regularizer": null, "momentum": 0.99, "center": true}, "name": "batch_normalization_23"}, {"class_name": "LeakyReLU", "inbound_nodes": [[["batch_normalization_23", 0, 0, {}]]], "config": {"alpha": 0.10000000149011612, "trainable": true, "name": "leaky_re_lu_23"}, "name": "leaky_re_lu_23"}, {"class_name": "Conv2D", "inbound_nodes": [[["leaky_re_lu_23", 0, 0, {}]]], "config": {"kernel_initializer": {"class_name": "VarianceScaling", "config": {"distribution": "uniform", "scale": 1.0, "seed": null, "mode": "fan_avg"}}, "bias_initializer": {"class_name": "Zeros", "config": {}}, "kernel_constraint": null, "bias_regularizer": null, "bias_constraint": null, "activity_regularizer": null, "trainable": true, "data_format": "channels_last", "padding": "same", "strides": [1, 1], "dilation_rate": [1, 1], "kernel_regularizer": {"class_name": "L1L2", "config": {"l2": 0.0005000000237487257, "l1": 0.0}}, "filters": 256, "use_bias": false, "activation": "linear", "kernel_size": [3, 3], "name": "conv2d_24"}, "name": "conv2d_24"}, {"class_name": "BatchNormalization", "inbound_nodes": [[["conv2d_24", 0, 0, {}]]], "config": {"beta_constraint": null, "gamma_initializer": {"class_name": "Ones", "config": {}}, "moving_mean_initializer": {"class_name": "Zeros", "config": {}}, "name": "batch_normalization_24", "epsilon": 0.001, "trainable": true, "moving_variance_initializer": {"class_name": "Ones", "config": {}}, "beta_initializer": {"class_name": "Zeros", "config": {}}, "gamma_constraint": null, "scale": true, "gamma_regularizer": null, "axis": -1, "beta_regularizer": null, "momentum": 0.99, "center": true}, "name": "batch_normalization_24"}, {"class_name": "LeakyReLU", "inbound_nodes": [[["batch_normalization_24", 0, 0, {}]]], "config": {"alpha": 0.10000000149011612, "trainable": true, "name": "leaky_re_lu_24"}, "name": "leaky_re_lu_24"}, {"class_name": "Add", "inbound_nodes": [[["add_9", 0, 0, {}], ["leaky_re_lu_24", 0, 0, {}]]], "config": {"trainable": true, "name": "add_10"}, "name": "add_10"}, {"class_name": "Conv2D", "inbound_nodes": [[["add_10", 0, 0, {}]]], "config": {"kernel_initializer": {"class_name": "VarianceScaling", "config": {"distribution": "uniform", "scale": 1.0, "seed": null, "mode": "fan_avg"}}, "bias_initializer": {"class_name": "Zeros", "config": {}}, "kernel_constraint": null, "bias_regularizer": null, "bias_constraint": null, "activity_regularizer": null, "trainable": true, "data_format": "channels_last", "padding": "same", "strides": [1, 1], "dilation_rate": [1, 1], "kernel_regularizer": {"class_name": "L1L2", "config": {"l2": 0.0005000000237487257, "l1": 0.0}}, "filters": 128, "use_bias": false, "activation": "linear", "kernel_size": [1, 1], "name": "conv2d_25"}, "name": "conv2d_25"}, {"class_name": "BatchNormalization", "inbound_nodes": [[["conv2d_25", 0, 0, {}]]], "config": {"beta_constraint": null, "gamma_initializer": {"class_name": "Ones", "config": {}}, "moving_mean_initializer": {"class_name": "Zeros", "config": {}}, "name": "batch_normalization_25", "epsilon": 0.001, "trainable": true, "moving_variance_initializer": {"class_name": "Ones", "config": {}}, "beta_initializer": {"class_name": "Zeros", "config": {}}, "gamma_constraint": null, "scale": true, "gamma_regularizer": null, "axis": -1, "beta_regularizer": null, "momentum": 0.99, "center": true}, "name": "batch_normalization_25"}, {"class_name": "LeakyReLU", "inbound_nodes": [[["batch_normalization_25", 0, 0, {}]]], "config": {"alpha": 0.10000000149011612, "trainable": true, "name": "leaky_re_lu_25"}, "name": "leaky_re_lu_25"}, {"class_name": "Conv2D", "inbound_nodes": [[["leaky_re_lu_25", 0, 0, {}]]], "config": {"kernel_initializer": {"class_name": "VarianceScaling", "config": {"distribution": "uniform", "scale": 1.0, "seed": null, "mode": "fan_avg"}}, "bias_initializer": {"class_name": "Zeros", "config": {}}, "kernel_constraint": null, "bias_regularizer": null, "bias_constraint": null, "activity_regularizer": null, "trainable": true, "data_format": "channels_last", "padding": "same", "strides": [1, 1], "dilation_rate": [1, 1], "kernel_regularizer": {"class_name": "L1L2", "config": {"l2": 0.0005000000237487257, "l1": 0.0}}, "filters": 256, "use_bias": false, "activation": "linear", "kernel_size": [3, 3], "name": "conv2d_26"}, "name": "conv2d_26"}, {"class_name": "BatchNormalization", "inbound_nodes": [[["conv2d_26", 0, 0, {}]]], "config": {"beta_constraint": null, "gamma_initializer": {"class_name": "Ones", "config": {}}, "moving_mean_initializer": {"class_name": "Zeros", "config": {}}, "name": "batch_normalization_26", "epsilon": 0.001, "trainable": true, "moving_variance_initializer": {"class_name": "Ones", "config": {}}, "beta_initializer": {"class_name": "Zeros", "config": {}}, "gamma_constraint": null, "scale": true, "gamma_regularizer": null, "axis": -1, "beta_regularizer": null, "momentum": 0.99, "center": true}, "name": "batch_normalization_26"}, {"class_name": "LeakyReLU", "inbound_nodes": [[["batch_normalization_26", 0, 0, {}]]], "config": {"alpha": 0.10000000149011612, "trainable": true, "name": "leaky_re_lu_26"}, "name": "leaky_re_lu_26"}, {"class_name": "Add", "inbound_nodes": [[["add_10", 0, 0, {}], ["leaky_re_lu_26", 0, 0, {}]]], "config": {"trainable": true, "name": "add_11"}, "name": "add_11"}, {"class_name": "ZeroPadding2D", "inbound_nodes": [[["add_11", 0, 0, {}]]], "config": {"padding": [[1, 0], [1, 0]], "trainable": true, "name": "zero_padding2d_4", "data_format": "channels_last"}, "name": "zero_padding2d_4"}, {"class_name": "Conv2D", "inbound_nodes": [[["zero_padding2d_4", 0, 0, {}]]], "config": {"kernel_initializer": {"class_name": "VarianceScaling", "config": {"distribution": "uniform", "scale": 1.0, "seed": null, "mode": "fan_avg"}}, "bias_initializer": {"class_name": "Zeros", "config": {}}, "kernel_constraint": null, "bias_regularizer": null, "bias_constraint": null, "activity_regularizer": null, "trainable": true, "data_format": "channels_last", "padding": "valid", "strides": [2, 2], "dilation_rate": [1, 1], "kernel_regularizer": {"class_name": "L1L2", "config": {"l2": 0.0005000000237487257, "l1": 0.0}}, "filters": 512, "use_bias": false, "activation": "linear", "kernel_size": [3, 3], "name": "conv2d_27"}, "name": "conv2d_27"}, {"class_name": "BatchNormalization", "inbound_nodes": [[["conv2d_27", 0, 0, {}]]], "config": {"beta_constraint": null, "gamma_initializer": {"class_name": "Ones", "config": {}}, "moving_mean_initializer": {"class_name": "Zeros", "config": {}}, "name": "batch_normalization_27", "epsilon": 0.001, "trainable": true, "moving_variance_initializer": {"class_name": "Ones", "config": {}}, "beta_initializer": {"class_name": "Zeros", "config": {}}, "gamma_constraint": null, "scale": true, "gamma_regularizer": null, "axis": -1, "beta_regularizer": null, "momentum": 0.99, "center": true}, "name": "batch_normalization_27"}, {"class_name": "LeakyReLU", "inbound_nodes": [[["batch_normalization_27", 0, 0, {}]]], "config": {"alpha": 0.10000000149011612, "trainable": true, "name": "leaky_re_lu_27"}, "name": "leaky_re_lu_27"}, {"class_name": "Conv2D", "inbound_nodes": [[["leaky_re_lu_27", 0, 0, {}]]], "config": {"kernel_initializer": {"class_name": "VarianceScaling", "config": {"distribution": "uniform", "scale": 1.0, "seed": null, "mode": "fan_avg"}}, "bias_initializer": {"class_name": "Zeros", "config": {}}, "kernel_constraint": null, "bias_regularizer": null, "bias_constraint": null, "activity_regularizer": null, "trainable": true, "data_format": "channels_last", "padding": "same", "strides": [1, 1], "dilation_rate": [1, 1], "kernel_regularizer": {"class_name": "L1L2", "config": {"l2": 0.0005000000237487257, "l1": 0.0}}, "filters": 256, "use_bias": false, "activation": "linear", "kernel_size": [1, 1], "name": "conv2d_28"}, "name": "conv2d_28"}, {"class_name": "BatchNormalization", "inbound_nodes": [[["conv2d_28", 0, 0, {}]]], "config": {"beta_constraint": null, "gamma_initializer": {"class_name": "Ones", "config": {}}, "moving_mean_initializer": {"class_name": "Zeros", "config": {}}, "name": "batch_normalization_28", "epsilon": 0.001, "trainable": true, "moving_variance_initializer": {"class_name": "Ones", "config": {}}, "beta_initializer": {"class_name": "Zeros", "config": {}}, "gamma_constraint": null, "scale": true, "gamma_regularizer": null, "axis": -1, "beta_regularizer": null, "momentum": 0.99, "center": true}, "name": "batch_normalization_28"}, {"class_name": "LeakyReLU", "inbound_nodes": [[["batch_normalization_28", 0, 0, {}]]], "config": {"alpha": 0.10000000149011612, "trainable": true, "name": "leaky_re_lu_28"}, "name": "leaky_re_lu_28"}, {"class_name": "Conv2D", "inbound_nodes": [[["leaky_re_lu_28", 0, 0, {}]]], "config": {"kernel_initializer": {"class_name": "VarianceScaling", "config": {"distribution": "uniform", "scale": 1.0, "seed": null, "mode": "fan_avg"}}, "bias_initializer": {"class_name": "Zeros", "config": {}}, "kernel_constraint": null, "bias_regularizer": null, "bias_constraint": null, "activity_regularizer": null, "trainable": true, "data_format": "channels_last", "padding": "same", "strides": [1, 1], "dilation_rate": [1, 1], "kernel_regularizer": {"class_name": "L1L2", "config": {"l2": 0.0005000000237487257, "l1": 0.0}}, "filters": 512, "use_bias": false, "activation": "linear", "kernel_size": [3, 3], "name": "conv2d_29"}, "name": "conv2d_29"}, {"class_name": "BatchNormalization", "inbound_nodes": [[["conv2d_29", 0, 0, {}]]], "config": {"beta_constraint": null, "gamma_initializer": {"class_name": "Ones", "config": {}}, "moving_mean_initializer": {"class_name": "Zeros", "config": {}}, "name": "batch_normalization_29", "epsilon": 0.001, "trainable": true, "moving_variance_initializer": {"class_name": "Ones", "config": {}}, "beta_initializer": {"class_name": "Zeros", "config": {}}, "gamma_constraint": null, "scale": true, "gamma_regularizer": null, "axis": -1, "beta_regularizer": null, "momentum": 0.99, "center": true}, "name": "batch_normalization_29"}, {"class_name": "LeakyReLU", "inbound_nodes": [[["batch_normalization_29", 0, 0, {}]]], "config": {"alpha": 0.10000000149011612, "trainable": true, "name": "leaky_re_lu_29"}, "name": "leaky_re_lu_29"}, {"class_name": "Add", "inbound_nodes": [[["leaky_re_lu_27", 0, 0, {}], ["leaky_re_lu_29", 0, 0, {}]]], "config": {"trainable": true, "name": "add_12"}, "name": "add_12"}, {"class_name": "Conv2D", "inbound_nodes": [[["add_12", 0, 0, {}]]], "config": {"kernel_initializer": {"class_name": "VarianceScaling", "config": {"distribution": "uniform", "scale": 1.0, "seed": null, "mode": "fan_avg"}}, "bias_initializer": {"class_name": "Zeros", "config": {}}, "kernel_constraint": null, "bias_regularizer": null, "bias_constraint": null, "activity_regularizer": null, "trainable": true, "data_format": "channels_last", "padding": "same", "strides": [1, 1], "dilation_rate": [1, 1], "kernel_regularizer": {"class_name": "L1L2", "config": {"l2": 0.0005000000237487257, "l1": 0.0}}, "filters": 256, "use_bias": false, "activation": "linear", "kernel_size": [1, 1], "name": "conv2d_30"}, "name": "conv2d_30"}, {"class_name": "BatchNormalization", "inbound_nodes": [[["conv2d_30", 0, 0, {}]]], "config": {"beta_constraint": null, "gamma_initializer": {"class_name": "Ones", "config": {}}, "moving_mean_initializer": {"class_name": "Zeros", "config": {}}, "name": "batch_normalization_30", "epsilon": 0.001, "trainable": true, "moving_variance_initializer": {"class_name": "Ones", "config": {}}, "beta_initializer": {"class_name": "Zeros", "config": {}}, "gamma_constraint": null, "scale": true, "gamma_regularizer": null, "axis": -1, "beta_regularizer": null, "momentum": 0.99, "center": true}, "name": "batch_normalization_30"}, {"class_name": "LeakyReLU", "inbound_nodes": [[["batch_normalization_30", 0, 0, {}]]], "config": {"alpha": 0.10000000149011612, "trainable": true, "name": "leaky_re_lu_30"}, "name": "leaky_re_lu_30"}, {"class_name": "Conv2D", "inbound_nodes": [[["leaky_re_lu_30", 0, 0, {}]]], "config": {"kernel_initializer": {"class_name": "VarianceScaling", "config": {"distribution": "uniform", "scale": 1.0, "seed": null, "mode": "fan_avg"}}, "bias_initializer": {"class_name": "Zeros", "config": {}}, "kernel_constraint": null, "bias_regularizer": null, "bias_constraint": null, "activity_regularizer": null, "trainable": true, "data_format": "channels_last", "padding": "same", "strides": [1, 1], "dilation_rate": [1, 1], "kernel_regularizer": {"class_name": "L1L2", "config": {"l2": 0.0005000000237487257, "l1": 0.0}}, "filters": 512, "use_bias": false, "activation": "linear", "kernel_size": [3, 3], "name": "conv2d_31"}, "name": "conv2d_31"}, {"class_name": "BatchNormalization", "inbound_nodes": [[["conv2d_31", 0, 0, {}]]], "config": {"beta_constraint": null, "gamma_initializer": {"class_name": "Ones", "config": {}}, "moving_mean_initializer": {"class_name": "Zeros", "config": {}}, "name": "batch_normalization_31", "epsilon": 0.001, "trainable": true, "moving_variance_initializer": {"class_name": "Ones", "config": {}}, "beta_initializer": {"class_name": "Zeros", "config": {}}, "gamma_constraint": null, "scale": true, "gamma_regularizer": null, "axis": -1, "beta_regularizer": null, "momentum": 0.99, "center": true}, "name": "batch_normalization_31"}, {"class_name": "LeakyReLU", "inbound_nodes": [[["batch_normalization_31", 0, 0, {}]]], "config": {"alpha": 0.10000000149011612, "trainable": true, "name": "leaky_re_lu_31"}, "name": "leaky_re_lu_31"}, {"class_name": "Add", "inbound_nodes": [[["add_12", 0, 0, {}], ["leaky_re_lu_31", 0, 0, {}]]], "config": {"trainable": true, "name": "add_13"}, "name": "add_13"}, {"class_name": "Conv2D", "inbound_nodes": [[["add_13", 0, 0, {}]]], "config": {"kernel_initializer": {"class_name": "VarianceScaling", "config": {"distribution": "uniform", "scale": 1.0, "seed": null, "mode": "fan_avg"}}, "bias_initializer": {"class_name": "Zeros", "config": {}}, "kernel_constraint": null, "bias_regularizer": null, "bias_constraint": null, "activity_regularizer": null, "trainable": true, "data_format": "channels_last", "padding": "same", "strides": [1, 1], "dilation_rate": [1, 1], "kernel_regularizer": {"class_name": "L1L2", "config": {"l2": 0.0005000000237487257, "l1": 0.0}}, "filters": 256, "use_bias": false, "activation": "linear", "kernel_size": [1, 1], "name": "conv2d_32"}, "name": "conv2d_32"}, {"class_name": "BatchNormalization", "inbound_nodes": [[["conv2d_32", 0, 0, {}]]], "config": {"beta_constraint": null, "gamma_initializer": {"class_name": "Ones", "config": {}}, "moving_mean_initializer": {"class_name": "Zeros", "config": {}}, "name": "batch_normalization_32", "epsilon": 0.001, "trainable": true, "moving_variance_initializer": {"class_name": "Ones", "config": {}}, "beta_initializer": {"class_name": "Zeros", "config": {}}, "gamma_constraint": null, "scale": true, "gamma_regularizer": null, "axis": -1, "beta_regularizer": null, "momentum": 0.99, "center": true}, "name": "batch_normalization_32"}, {"class_name": "LeakyReLU", "inbound_nodes": [[["batch_normalization_32", 0, 0, {}]]], "config": {"alpha": 0.10000000149011612, "trainable": true, "name": "leaky_re_lu_32"}, "name": "leaky_re_lu_32"}, {"class_name": "Conv2D", "inbound_nodes": [[["leaky_re_lu_32", 0, 0, {}]]], "config": {"kernel_initializer": {"class_name": "VarianceScaling", "config": {"distribution": "uniform", "scale": 1.0, "seed": null, "mode": "fan_avg"}}, "bias_initializer": {"class_name": "Zeros", "config": {}}, "kernel_constraint": null, "bias_regularizer": null, "bias_constraint": null, "activity_regularizer": null, "trainable": true, "data_format": "channels_last", "padding": "same", "strides": [1, 1], "dilation_rate": [1, 1], "kernel_regularizer": {"class_name": "L1L2", "config": {"l2": 0.0005000000237487257, "l1": 0.0}}, "filters": 512, "use_bias": false, "activation": "linear", "kernel_size": [3, 3], "name": "conv2d_33"}, "name": "conv2d_33"}, {"class_name": "BatchNormalization", "inbound_nodes": [[["conv2d_33", 0, 0, {}]]], "config": {"beta_constraint": null, "gamma_initializer": {"class_name": "Ones", "config": {}}, "moving_mean_initializer": {"class_name": "Zeros", "config": {}}, "name": "batch_normalization_33", "epsilon": 0.001, "trainable": true, "moving_variance_initializer": {"class_name": "Ones", "config": {}}, "beta_initializer": {"class_name": "Zeros", "config": {}}, "gamma_constraint": null, "scale": true, "gamma_regularizer": null, "axis": -1, "beta_regularizer": null, "momentum": 0.99, "center": true}, "name": "batch_normalization_33"}, {"class_name": "LeakyReLU", "inbound_nodes": [[["batch_normalization_33", 0, 0, {}]]], "config": {"alpha": 0.10000000149011612, "trainable": true, "name": "leaky_re_lu_33"}, "name": "leaky_re_lu_33"}, {"class_name": "Add", "inbound_nodes": [[["add_13", 0, 0, {}], ["leaky_re_lu_33", 0, 0, {}]]], "config": {"trainable": true, "name": "add_14"}, "name": "add_14"}, {"class_name": "Conv2D", "inbound_nodes": [[["add_14", 0, 0, {}]]], "config": {"kernel_initializer": {"class_name": "VarianceScaling", "config": {"distribution": "uniform", "scale": 1.0, "seed": null, "mode": "fan_avg"}}, "bias_initializer": {"class_name": "Zeros", "config": {}}, "kernel_constraint": null, "bias_regularizer": null, "bias_constraint": null, "activity_regularizer": null, "trainable": true, "data_format": "channels_last", "padding": "same", "strides": [1, 1], "dilation_rate": [1, 1], "kernel_regularizer": {"class_name": "L1L2", "config": {"l2": 0.0005000000237487257, "l1": 0.0}}, "filters": 256, "use_bias": false, "activation": "linear", "kernel_size": [1, 1], "name": "conv2d_34"}, "name": "conv2d_34"}, {"class_name": "BatchNormalization", "inbound_nodes": [[["conv2d_34", 0, 0, {}]]], "config": {"beta_constraint": null, "gamma_initializer": {"class_name": "Ones", "config": {}}, "moving_mean_initializer": {"class_name": "Zeros", "config": {}}, "name": "batch_normalization_34", "epsilon": 0.001, "trainable": true, "moving_variance_initializer": {"class_name": "Ones", "config": {}}, "beta_initializer": {"class_name": "Zeros", "config": {}}, "gamma_constraint": null, "scale": true, "gamma_regularizer": null, "axis": -1, "beta_regularizer": null, "momentum": 0.99, "center": true}, "name": "batch_normalization_34"}, {"class_name": "LeakyReLU", "inbound_nodes": [[["batch_normalization_34", 0, 0, {}]]], "config": {"alpha": 0.10000000149011612, "trainable": true, "name": "leaky_re_lu_34"}, "name": "leaky_re_lu_34"}, {"class_name": "Conv2D", "inbound_nodes": [[["leaky_re_lu_34", 0, 0, {}]]], "config": {"kernel_initializer": {"class_name": "VarianceScaling", "config": {"distribution": "uniform", "scale": 1.0, "seed": null, "mode": "fan_avg"}}, "bias_initializer": {"class_name": "Zeros", "config": {}}, "kernel_constraint": null, "bias_regularizer": null, "bias_constraint": null, "activity_regularizer": null, "trainable": true, "data_format": "channels_last", "padding": "same", "strides": [1, 1], "dilation_rate": [1, 1], "kernel_regularizer": {"class_name": "L1L2", "config": {"l2": 0.0005000000237487257, "l1": 0.0}}, "filters": 512, "use_bias": false, "activation": "linear", "kernel_size": [3, 3], "name": "conv2d_35"}, "name": "conv2d_35"}, {"class_name": "BatchNormalization", "inbound_nodes": [[["conv2d_35", 0, 0, {}]]], "config": {"beta_constraint": null, "gamma_initializer": {"class_name": "Ones", "config": {}}, "moving_mean_initializer": {"class_name": "Zeros", "config": {}}, "name": "batch_normalization_35", "epsilon": 0.001, "trainable": true, "moving_variance_initializer": {"class_name": "Ones", "config": {}}, "beta_initializer": {"class_name": "Zeros", "config": {}}, "gamma_constraint": null, "scale": true, "gamma_regularizer": null, "axis": -1, "beta_regularizer": null, "momentum": 0.99, "center": true}, "name": "batch_normalization_35"}, {"class_name": "LeakyReLU", "inbound_nodes": [[["batch_normalization_35", 0, 0, {}]]], "config": {"alpha": 0.10000000149011612, "trainable": true, "name": "leaky_re_lu_35"}, "name": "leaky_re_lu_35"}, {"class_name": "Add", "inbound_nodes": [[["add_14", 0, 0, {}], ["leaky_re_lu_35", 0, 0, {}]]], "config": {"trainable": true, "name": "add_15"}, "name": "add_15"}, {"class_name": "Conv2D", "inbound_nodes": [[["add_15", 0, 0, {}]]], "config": {"kernel_initializer": {"class_name": "VarianceScaling", "config": {"distribution": "uniform", "scale": 1.0, "seed": null, "mode": "fan_avg"}}, "bias_initializer": {"class_name": "Zeros", "config": {}}, "kernel_constraint": null, "bias_regularizer": null, "bias_constraint": null, "activity_regularizer": null, "trainable": true, "data_format": "channels_last", "padding": "same", "strides": [1, 1], "dilation_rate": [1, 1], "kernel_regularizer": {"class_name": "L1L2", "config": {"l2": 0.0005000000237487257, "l1": 0.0}}, "filters": 256, "use_bias": false, "activation": "linear", "kernel_size": [1, 1], "name": "conv2d_36"}, "name": "conv2d_36"}, {"class_name": "BatchNormalization", "inbound_nodes": [[["conv2d_36", 0, 0, {}]]], "config": {"beta_constraint": null, "gamma_initializer": {"class_name": "Ones", "config": {}}, "moving_mean_initializer": {"class_name": "Zeros", "config": {}}, "name": "batch_normalization_36", "epsilon": 0.001, "trainable": true, "moving_variance_initializer": {"class_name": "Ones", "config": {}}, "beta_initializer": {"class_name": "Zeros", "config": {}}, "gamma_constraint": null, "scale": true, "gamma_regularizer": null, "axis": -1, "beta_regularizer": null, "momentum": 0.99, "center": true}, "name": "batch_normalization_36"}, {"class_name": "LeakyReLU", "inbound_nodes": [[["batch_normalization_36", 0, 0, {}]]], "config": {"alpha": 0.10000000149011612, "trainable": true, "name": "leaky_re_lu_36"}, "name": "leaky_re_lu_36"}, {"class_name": "Conv2D", "inbound_nodes": [[["leaky_re_lu_36", 0, 0, {}]]], "config": {"kernel_initializer": {"class_name": "VarianceScaling", "config": {"distribution": "uniform", "scale": 1.0, "seed": null, "mode": "fan_avg"}}, "bias_initializer": {"class_name": "Zeros", "config": {}}, "kernel_constraint": null, "bias_regularizer": null, "bias_constraint": null, "activity_regularizer": null, "trainable": true, "data_format": "channels_last", "padding": "same", "strides": [1, 1], "dilation_rate": [1, 1], "kernel_regularizer": {"class_name": "L1L2", "config": {"l2": 0.0005000000237487257, "l1": 0.0}}, "filters": 512, "use_bias": false, "activation": "linear", "kernel_size": [3, 3], "name": "conv2d_37"}, "name": "conv2d_37"}, {"class_name": "BatchNormalization", "inbound_nodes": [[["conv2d_37", 0, 0, {}]]], "config": {"beta_constraint": null, "gamma_initializer": {"class_name": "Ones", "config": {}}, "moving_mean_initializer": {"class_name": "Zeros", "config": {}}, "name": "batch_normalization_37", "epsilon": 0.001, "trainable": true, "moving_variance_initializer": {"class_name": "Ones", "config": {}}, "beta_initializer": {"class_name": "Zeros", "config": {}}, "gamma_constraint": null, "scale": true, "gamma_regularizer": null, "axis": -1, "beta_regularizer": null, "momentum": 0.99, "center": true}, "name": "batch_normalization_37"}, {"class_name": "LeakyReLU", "inbound_nodes": [[["batch_normalization_37", 0, 0, {}]]], "config": {"alpha": 0.10000000149011612, "trainable": true, "name": "leaky_re_lu_37"}, "name": "leaky_re_lu_37"}, {"class_name": "Add", "inbound_nodes": [[["add_15", 0, 0, {}], ["leaky_re_lu_37", 0, 0, {}]]], "config": {"trainable": true, "name": "add_16"}, "name": "add_16"}, {"class_name": "Conv2D", "inbound_nodes": [[["add_16", 0, 0, {}]]], "config": {"kernel_initializer": {"class_name": "VarianceScaling", "config": {"distribution": "uniform", "scale": 1.0, "seed": null, "mode": "fan_avg"}}, "bias_initializer": {"class_name": "Zeros", "config": {}}, "kernel_constraint": null, "bias_regularizer": null, "bias_constraint": null, "activity_regularizer": null, "trainable": true, "data_format": "channels_last", "padding": "same", "strides": [1, 1], "dilation_rate": [1, 1], "kernel_regularizer": {"class_name": "L1L2", "config": {"l2": 0.0005000000237487257, "l1": 0.0}}, "filters": 256, "use_bias": false, "activation": "linear", "kernel_size": [1, 1], "name": "conv2d_38"}, "name": "conv2d_38"}, {"class_name": "BatchNormalization", "inbound_nodes": [[["conv2d_38", 0, 0, {}]]], "config": {"beta_constraint": null, "gamma_initializer": {"class_name": "Ones", "config": {}}, "moving_mean_initializer": {"class_name": "Zeros", "config": {}}, "name": "batch_normalization_38", "epsilon": 0.001, "trainable": true, "moving_variance_initializer": {"class_name": "Ones", "config": {}}, "beta_initializer": {"class_name": "Zeros", "config": {}}, "gamma_constraint": null, "scale": true, "gamma_regularizer": null, "axis": -1, "beta_regularizer": null, "momentum": 0.99, "center": true}, "name": "batch_normalization_38"}, {"class_name": "LeakyReLU", "inbound_nodes": [[["batch_normalization_38", 0, 0, {}]]], "config": {"alpha": 0.10000000149011612, "trainable": true, "name": "leaky_re_lu_38"}, "name": "leaky_re_lu_38"}, {"class_name": "Conv2D", "inbound_nodes": [[["leaky_re_lu_38", 0, 0, {}]]], "config": {"kernel_initializer": {"class_name": "VarianceScaling", "config": {"distribution": "uniform", "scale": 1.0, "seed": null, "mode": "fan_avg"}}, "bias_initializer": {"class_name": "Zeros", "config": {}}, "kernel_constraint": null, "bias_regularizer": null, "bias_constraint": null, "activity_regularizer": null, "trainable": true, "data_format": "channels_last", "padding": "same", "strides": [1, 1], "dilation_rate": [1, 1], "kernel_regularizer": {"class_name": "L1L2", "config": {"l2": 0.0005000000237487257, "l1": 0.0}}, "filters": 512, "use_bias": false, "activation": "linear", "kernel_size": [3, 3], "name": "conv2d_39"}, "name": "conv2d_39"}, {"class_name": "BatchNormalization", "inbound_nodes": [[["conv2d_39", 0, 0, {}]]], "config": {"beta_constraint": null, "gamma_initializer": {"class_name": "Ones", "config": {}}, "moving_mean_initializer": {"class_name": "Zeros", "config": {}}, "name": "batch_normalization_39", "epsilon": 0.001, "trainable": true, "moving_variance_initializer": {"class_name": "Ones", "config": {}}, "beta_initializer": {"class_name": "Zeros", "config": {}}, "gamma_constraint": null, "scale": true, "gamma_regularizer": null, "axis": -1, "beta_regularizer": null, "momentum": 0.99, "center": true}, "name": "batch_normalization_39"}, {"class_name": "LeakyReLU", "inbound_nodes": [[["batch_normalization_39", 0, 0, {}]]], "config": {"alpha": 0.10000000149011612, "trainable": true, "name": "leaky_re_lu_39"}, "name": "leaky_re_lu_39"}, {"class_name": "Add", "inbound_nodes": [[["add_16", 0, 0, {}], ["leaky_re_lu_39", 0, 0, {}]]], "config": {"trainable": true, "name": "add_17"}, "name": "add_17"}, {"class_name": "Conv2D", "inbound_nodes": [[["add_17", 0, 0, {}]]], "config": {"kernel_initializer": {"class_name": "VarianceScaling", "config": {"distribution": "uniform", "scale": 1.0, "seed": null, "mode": "fan_avg"}}, "bias_initializer": {"class_name": "Zeros", "config": {}}, "kernel_constraint": null, "bias_regularizer": null, "bias_constraint": null, "activity_regularizer": null, "trainable": true, "data_format": "channels_last", "padding": "same", "strides": [1, 1], "dilation_rate": [1, 1], "kernel_regularizer": {"class_name": "L1L2", "config": {"l2": 0.0005000000237487257, "l1": 0.0}}, "filters": 256, "use_bias": false, "activation": "linear", "kernel_size": [1, 1], "name": "conv2d_40"}, "name": "conv2d_40"}, {"class_name": "BatchNormalization", "inbound_nodes": [[["conv2d_40", 0, 0, {}]]], "config": {"beta_constraint": null, "gamma_initializer": {"class_name": "Ones", "config": {}}, "moving_mean_initializer": {"class_name": "Zeros", "config": {}}, "name": "batch_normalization_40", "epsilon": 0.001, "trainable": true, "moving_variance_initializer": {"class_name": "Ones", "config": {}}, "beta_initializer": {"class_name": "Zeros", "config": {}}, "gamma_constraint": null, "scale": true, "gamma_regularizer": null, "axis": -1, "beta_regularizer": null, "momentum": 0.99, "center": true}, "name": "batch_normalization_40"}, {"class_name": "LeakyReLU", "inbound_nodes": [[["batch_normalization_40", 0, 0, {}]]], "config": {"alpha": 0.10000000149011612, "trainable": true, "name": "leaky_re_lu_40"}, "name": "leaky_re_lu_40"}, {"class_name": "Conv2D", "inbound_nodes": [[["leaky_re_lu_40", 0, 0, {}]]], "config": {"kernel_initializer": {"class_name": "VarianceScaling", "config": {"distribution": "uniform", "scale": 1.0, "seed": null, "mode": "fan_avg"}}, "bias_initializer": {"class_name": "Zeros", "config": {}}, "kernel_constraint": null, "bias_regularizer": null, "bias_constraint": null, "activity_regularizer": null, "trainable": true, "data_format": "channels_last", "padding": "same", "strides": [1, 1], "dilation_rate": [1, 1], "kernel_regularizer": {"class_name": "L1L2", "config": {"l2": 0.0005000000237487257, "l1": 0.0}}, "filters": 512, "use_bias": false, "activation": "linear", "kernel_size": [3, 3], "name": "conv2d_41"}, "name": "conv2d_41"}, {"class_name": "BatchNormalization", "inbound_nodes": [[["conv2d_41", 0, 0, {}]]], "config": {"beta_constraint": null, "gamma_initializer": {"class_name": "Ones", "config": {}}, "moving_mean_initializer": {"class_name": "Zeros", "config": {}}, "name": "batch_normalization_41", "epsilon": 0.001, "trainable": true, "moving_variance_initializer": {"class_name": "Ones", "config": {}}, "beta_initializer": {"class_name": "Zeros", "config": {}}, "gamma_constraint": null, "scale": true, "gamma_regularizer": null, "axis": -1, "beta_regularizer": null, "momentum": 0.99, "center": true}, "name": "batch_normalization_41"}, {"class_name": "LeakyReLU", "inbound_nodes": [[["batch_normalization_41", 0, 0, {}]]], "config": {"alpha": 0.10000000149011612, "trainable": true, "name": "leaky_re_lu_41"}, "name": "leaky_re_lu_41"}, {"class_name": "Add", "inbound_nodes": [[["add_17", 0, 0, {}], ["leaky_re_lu_41", 0, 0, {}]]], "config": {"trainable": true, "name": "add_18"}, "name": "add_18"}, {"class_name": "Conv2D", "inbound_nodes": [[["add_18", 0, 0, {}]]], "config": {"kernel_initializer": {"class_name": "VarianceScaling", "config": {"distribution": "uniform", "scale": 1.0, "seed": null, "mode": "fan_avg"}}, "bias_initializer": {"class_name": "Zeros", "config": {}}, "kernel_constraint": null, "bias_regularizer": null, "bias_constraint": null, "activity_regularizer": null, "trainable": true, "data_format": "channels_last", "padding": "same", "strides": [1, 1], "dilation_rate": [1, 1], "kernel_regularizer": {"class_name": "L1L2", "config": {"l2": 0.0005000000237487257, "l1": 0.0}}, "filters": 256, "use_bias": false, "activation": "linear", "kernel_size": [1, 1], "name": "conv2d_42"}, "name": "conv2d_42"}, {"class_name": "BatchNormalization", "inbound_nodes": [[["conv2d_42", 0, 0, {}]]], "config": {"beta_constraint": null, "gamma_initializer": {"class_name": "Ones", "config": {}}, "moving_mean_initializer": {"class_name": "Zeros", "config": {}}, "name": "batch_normalization_42", "epsilon": 0.001, "trainable": true, "moving_variance_initializer": {"class_name": "Ones", "config": {}}, "beta_initializer": {"class_name": "Zeros", "config": {}}, "gamma_constraint": null, "scale": true, "gamma_regularizer": null, "axis": -1, "beta_regularizer": null, "momentum": 0.99, "center": true}, "name": "batch_normalization_42"}, {"class_name": "LeakyReLU", "inbound_nodes": [[["batch_normalization_42", 0, 0, {}]]], "config": {"alpha": 0.10000000149011612, "trainable": true, "name": "leaky_re_lu_42"}, "name": "leaky_re_lu_42"}, {"class_name": "Conv2D", "inbound_nodes": [[["leaky_re_lu_42", 0, 0, {}]]], "config": {"kernel_initializer": {"class_name": "VarianceScaling", "config": {"distribution": "uniform", "scale": 1.0, "seed": null, "mode": "fan_avg"}}, "bias_initializer": {"class_name": "Zeros", "config": {}}, "kernel_constraint": null, "bias_regularizer": null, "bias_constraint": null, "activity_regularizer": null, "trainable": true, "data_format": "channels_last", "padding": "same", "strides": [1, 1], "dilation_rate": [1, 1], "kernel_regularizer": {"class_name": "L1L2", "config": {"l2": 0.0005000000237487257, "l1": 0.0}}, "filters": 512, "use_bias": false, "activation": "linear", "kernel_size": [3, 3], "name": "conv2d_43"}, "name": "conv2d_43"}, {"class_name": "BatchNormalization", "inbound_nodes": [[["conv2d_43", 0, 0, {}]]], "config": {"beta_constraint": null, "gamma_initializer": {"class_name": "Ones", "config": {}}, "moving_mean_initializer": {"class_name": "Zeros", "config": {}}, "name": "batch_normalization_43", "epsilon": 0.001, "trainable": true, "moving_variance_initializer": {"class_name": "Ones", "config": {}}, "beta_initializer": {"class_name": "Zeros", "config": {}}, "gamma_constraint": null, "scale": true, "gamma_regularizer": null, "axis": -1, "beta_regularizer": null, "momentum": 0.99, "center": true}, "name": "batch_normalization_43"}, {"class_name": "LeakyReLU", "inbound_nodes": [[["batch_normalization_43", 0, 0, {}]]], "config": {"alpha": 0.10000000149011612, "trainable": true, "name": "leaky_re_lu_43"}, "name": "leaky_re_lu_43"}, {"class_name": "Add", "inbound_nodes": [[["add_18", 0, 0, {}], ["leaky_re_lu_43", 0, 0, {}]]], "config": {"trainable": true, "name": "add_19"}, "name": "add_19"}, {"class_name": "ZeroPadding2D", "inbound_nodes": [[["add_19", 0, 0, {}]]], "config": {"padding": [[1, 0], [1, 0]], "trainable": true, "name": "zero_padding2d_5", "data_format": "channels_last"}, "name": "zero_padding2d_5"}, {"class_name": "Conv2D", "inbound_nodes": [[["zero_padding2d_5", 0, 0, {}]]], "config": {"kernel_initializer": {"class_name": "VarianceScaling", "config": {"distribution": "uniform", "scale": 1.0, "seed": null, "mode": "fan_avg"}}, "bias_initializer": {"class_name": "Zeros", "config": {}}, "kernel_constraint": null, "bias_regularizer": null, "bias_constraint": null, "activity_regularizer": null, "trainable": true, "data_format": "channels_last", "padding": "valid", "strides": [2, 2], "dilation_rate": [1, 1], "kernel_regularizer": {"class_name": "L1L2", "config": {"l2": 0.0005000000237487257, "l1": 0.0}}, "filters": 1024, "use_bias": false, "activation": "linear", "kernel_size": [3, 3], "name": "conv2d_44"}, "name": "conv2d_44"}, {"class_name": "BatchNormalization", "inbound_nodes": [[["conv2d_44", 0, 0, {}]]], "config": {"beta_constraint": null, "gamma_initializer": {"class_name": "Ones", "config": {}}, "moving_mean_initializer": {"class_name": "Zeros", "config": {}}, "name": "batch_normalization_44", "epsilon": 0.001, "trainable": true, "moving_variance_initializer": {"class_name": "Ones", "config": {}}, "beta_initializer": {"class_name": "Zeros", "config": {}}, "gamma_constraint": null, "scale": true, "gamma_regularizer": null, "axis": -1, "beta_regularizer": null, "momentum": 0.99, "center": true}, "name": "batch_normalization_44"}, {"class_name": "LeakyReLU", "inbound_nodes": [[["batch_normalization_44", 0, 0, {}]]], "config": {"alpha": 0.10000000149011612, "trainable": true, "name": "leaky_re_lu_44"}, "name": "leaky_re_lu_44"}, {"class_name": "Conv2D", "inbound_nodes": [[["leaky_re_lu_44", 0, 0, {}]]], "config": {"kernel_initializer": {"class_name": "VarianceScaling", "config": {"distribution": "uniform", "scale": 1.0, "seed": null, "mode": "fan_avg"}}, "bias_initializer": {"class_name": "Zeros", "config": {}}, "kernel_constraint": null, "bias_regularizer": null, "bias_constraint": null, "activity_regularizer": null, "trainable": true, "data_format": "channels_last", "padding": "same", "strides": [1, 1], "dilation_rate": [1, 1], "kernel_regularizer": {"class_name": "L1L2", "config": {"l2": 0.0005000000237487257, "l1": 0.0}}, "filters": 512, "use_bias": false, "activation": "linear", "kernel_size": [1, 1], "name": "conv2d_45"}, "name": "conv2d_45"}, {"class_name": "BatchNormalization", "inbound_nodes": [[["conv2d_45", 0, 0, {}]]], "config": {"beta_constraint": null, "gamma_initializer": {"class_name": "Ones", "config": {}}, "moving_mean_initializer": {"class_name": "Zeros", "config": {}}, "name": "batch_normalization_45", "epsilon": 0.001, "trainable": true, "moving_variance_initializer": {"class_name": "Ones", "config": {}}, "beta_initializer": {"class_name": "Zeros", "config": {}}, "gamma_constraint": null, "scale": true, "gamma_regularizer": null, "axis": -1, "beta_regularizer": null, "momentum": 0.99, "center": true}, "name": "batch_normalization_45"}, {"class_name": "LeakyReLU", "inbound_nodes": [[["batch_normalization_45", 0, 0, {}]]], "config": {"alpha": 0.10000000149011612, "trainable": true, "name": "leaky_re_lu_45"}, "name": "leaky_re_lu_45"}, {"class_name": "Conv2D", "inbound_nodes": [[["leaky_re_lu_45", 0, 0, {}]]], "config": {"kernel_initializer": {"class_name": "VarianceScaling", "config": {"distribution": "uniform", "scale": 1.0, "seed": null, "mode": "fan_avg"}}, "bias_initializer": {"class_name": "Zeros", "config": {}}, "kernel_constraint": null, "bias_regularizer": null, "bias_constraint": null, "activity_regularizer": null, "trainable": true, "data_format": "channels_last", "padding": "same", "strides": [1, 1], "dilation_rate": [1, 1], "kernel_regularizer": {"class_name": "L1L2", "config": {"l2": 0.0005000000237487257, "l1": 0.0}}, "filters": 1024, "use_bias": false, "activation": "linear", "kernel_size": [3, 3], "name": "conv2d_46"}, "name": "conv2d_46"}, {"class_name": "BatchNormalization", "inbound_nodes": [[["conv2d_46", 0, 0, {}]]], "config": {"beta_constraint": null, "gamma_initializer": {"class_name": "Ones", "config": {}}, "moving_mean_initializer": {"class_name": "Zeros", "config": {}}, "name": "batch_normalization_46", "epsilon": 0.001, "trainable": true, "moving_variance_initializer": {"class_name": "Ones", "config": {}}, "beta_initializer": {"class_name": "Zeros", "config": {}}, "gamma_constraint": null, "scale": true, "gamma_regularizer": null, "axis": -1, "beta_regularizer": null, "momentum": 0.99, "center": true}, "name": "batch_normalization_46"}, {"class_name": "LeakyReLU", "inbound_nodes": [[["batch_normalization_46", 0, 0, {}]]], "config": {"alpha": 0.10000000149011612, "trainable": true, "name": "leaky_re_lu_46"}, "name": "leaky_re_lu_46"}, {"class_name": "Add", "inbound_nodes": [[["leaky_re_lu_44", 0, 0, {}], ["leaky_re_lu_46", 0, 0, {}]]], "config": {"trainable": true, "name": "add_20"}, "name": "add_20"}, {"class_name": "Conv2D", "inbound_nodes": [[["add_20", 0, 0, {}]]], "config": {"kernel_initializer": {"class_name": "VarianceScaling", "config": {"distribution": "uniform", "scale": 1.0, "seed": null, "mode": "fan_avg"}}, "bias_initializer": {"class_name": "Zeros", "config": {}}, "kernel_constraint": null, "bias_regularizer": null, "bias_constraint": null, "activity_regularizer": null, "trainable": true, "data_format": "channels_last", "padding": "same", "strides": [1, 1], "dilation_rate": [1, 1], "kernel_regularizer": {"class_name": "L1L2", "config": {"l2": 0.0005000000237487257, "l1": 0.0}}, "filters": 512, "use_bias": false, "activation": "linear", "kernel_size": [1, 1], "name": "conv2d_47"}, "name": "conv2d_47"}, {"class_name": "BatchNormalization", "inbound_nodes": [[["conv2d_47", 0, 0, {}]]], "config": {"beta_constraint": null, "gamma_initializer": {"class_name": "Ones", "config": {}}, "moving_mean_initializer": {"class_name": "Zeros", "config": {}}, "name": "batch_normalization_47", "epsilon": 0.001, "trainable": true, "moving_variance_initializer": {"class_name": "Ones", "config": {}}, "beta_initializer": {"class_name": "Zeros", "config": {}}, "gamma_constraint": null, "scale": true, "gamma_regularizer": null, "axis": -1, "beta_regularizer": null, "momentum": 0.99, "center": true}, "name": "batch_normalization_47"}, {"class_name": "LeakyReLU", "inbound_nodes": [[["batch_normalization_47", 0, 0, {}]]], "config": {"alpha": 0.10000000149011612, "trainable": true, "name": "leaky_re_lu_47"}, "name": "leaky_re_lu_47"}, {"class_name": "Conv2D", "inbound_nodes": [[["leaky_re_lu_47", 0, 0, {}]]], "config": {"kernel_initializer": {"class_name": "VarianceScaling", "config": {"distribution": "uniform", "scale": 1.0, "seed": null, "mode": "fan_avg"}}, "bias_initializer": {"class_name": "Zeros", "config": {}}, "kernel_constraint": null, "bias_regularizer": null, "bias_constraint": null, "activity_regularizer": null, "trainable": true, "data_format": "channels_last", "padding": "same", "strides": [1, 1], "dilation_rate": [1, 1], "kernel_regularizer": {"class_name": "L1L2", "config": {"l2": 0.0005000000237487257, "l1": 0.0}}, "filters": 1024, "use_bias": false, "activation": "linear", "kernel_size": [3, 3], "name": "conv2d_48"}, "name": "conv2d_48"}, {"class_name": "BatchNormalization", "inbound_nodes": [[["conv2d_48", 0, 0, {}]]], "config": {"beta_constraint": null, "gamma_initializer": {"class_name": "Ones", "config": {}}, "moving_mean_initializer": {"class_name": "Zeros", "config": {}}, "name": "batch_normalization_48", "epsilon": 0.001, "trainable": true, "moving_variance_initializer": {"class_name": "Ones", "config": {}}, "beta_initializer": {"class_name": "Zeros", "config": {}}, "gamma_constraint": null, "scale": true, "gamma_regularizer": null, "axis": -1, "beta_regularizer": null, "momentum": 0.99, "center": true}, "name": "batch_normalization_48"}, {"class_name": "LeakyReLU", "inbound_nodes": [[["batch_normalization_48", 0, 0, {}]]], "config": {"alpha": 0.10000000149011612, "trainable": true, "name": "leaky_re_lu_48"}, "name": "leaky_re_lu_48"}, {"class_name": "Add", "inbound_nodes": [[["add_20", 0, 0, {}], ["leaky_re_lu_48", 0, 0, {}]]], "config": {"trainable": true, "name": "add_21"}, "name": "add_21"}, {"class_name": "Conv2D", "inbound_nodes": [[["add_21", 0, 0, {}]]], "config": {"kernel_initializer": {"class_name": "VarianceScaling", "config": {"distribution": "uniform", "scale": 1.0, "seed": null, "mode": "fan_avg"}}, "bias_initializer": {"class_name": "Zeros", "config": {}}, "kernel_constraint": null, "bias_regularizer": null, "bias_constraint": null, "activity_regularizer": null, "trainable": true, "data_format": "channels_last", "padding": "same", "strides": [1, 1], "dilation_rate": [1, 1], "kernel_regularizer": {"class_name": "L1L2", "config": {"l2": 0.0005000000237487257, "l1": 0.0}}, "filters": 512, "use_bias": false, "activation": "linear", "kernel_size": [1, 1], "name": "conv2d_49"}, "name": "conv2d_49"}, {"class_name": "BatchNormalization", "inbound_nodes": [[["conv2d_49", 0, 0, {}]]], "config": {"beta_constraint": null, "gamma_initializer": {"class_name": "Ones", "config": {}}, "moving_mean_initializer": {"class_name": "Zeros", "config": {}}, "name": "batch_normalization_49", "epsilon": 0.001, "trainable": true, "moving_variance_initializer": {"class_name": "Ones", "config": {}}, "beta_initializer": {"class_name": "Zeros", "config": {}}, "gamma_constraint": null, "scale": true, "gamma_regularizer": null, "axis": -1, "beta_regularizer": null, "momentum": 0.99, "center": true}, "name": "batch_normalization_49"}, {"class_name": "LeakyReLU", "inbound_nodes": [[["batch_normalization_49", 0, 0, {}]]], "config": {"alpha": 0.10000000149011612, "trainable": true, "name": "leaky_re_lu_49"}, "name": "leaky_re_lu_49"}, {"class_name": "Conv2D", "inbound_nodes": [[["leaky_re_lu_49", 0, 0, {}]]], "config": {"kernel_initializer": {"class_name": "VarianceScaling", "config": {"distribution": "uniform", "scale": 1.0, "seed": null, "mode": "fan_avg"}}, "bias_initializer": {"class_name": "Zeros", "config": {}}, "kernel_constraint": null, "bias_regularizer": null, "bias_constraint": null, "activity_regularizer": null, "trainable": true, "data_format": "channels_last", "padding": "same", "strides": [1, 1], "dilation_rate": [1, 1], "kernel_regularizer": {"class_name": "L1L2", "config": {"l2": 0.0005000000237487257, "l1": 0.0}}, "filters": 1024, "use_bias": false, "activation": "linear", "kernel_size": [3, 3], "name": "conv2d_50"}, "name": "conv2d_50"}, {"class_name": "BatchNormalization", "inbound_nodes": [[["conv2d_50", 0, 0, {}]]], "config": {"beta_constraint": null, "gamma_initializer": {"class_name": "Ones", "config": {}}, "moving_mean_initializer": {"class_name": "Zeros", "config": {}}, "name": "batch_normalization_50", "epsilon": 0.001, "trainable": true, "moving_variance_initializer": {"class_name": "Ones", "config": {}}, "beta_initializer": {"class_name": "Zeros", "config": {}}, "gamma_constraint": null, "scale": true, "gamma_regularizer": null, "axis": -1, "beta_regularizer": null, "momentum": 0.99, "center": true}, "name": "batch_normalization_50"}, {"class_name": "LeakyReLU", "inbound_nodes": [[["batch_normalization_50", 0, 0, {}]]], "config": {"alpha": 0.10000000149011612, "trainable": true, "name": "leaky_re_lu_50"}, "name": "leaky_re_lu_50"}, {"class_name": "Add", "inbound_nodes": [[["add_21", 0, 0, {}], ["leaky_re_lu_50", 0, 0, {}]]], "config": {"trainable": true, "name": "add_22"}, "name": "add_22"}, {"class_name": "Conv2D", "inbound_nodes": [[["add_22", 0, 0, {}]]], "config": {"kernel_initializer": {"class_name": "VarianceScaling", "config": {"distribution": "uniform", "scale": 1.0, "seed": null, "mode": "fan_avg"}}, "bias_initializer": {"class_name": "Zeros", "config": {}}, "kernel_constraint": null, "bias_regularizer": null, "bias_constraint": null, "activity_regularizer": null, "trainable": true, "data_format": "channels_last", "padding": "same", "strides": [1, 1], "dilation_rate": [1, 1], "kernel_regularizer": {"class_name": "L1L2", "config": {"l2": 0.0005000000237487257, "l1": 0.0}}, "filters": 512, "use_bias": false, "activation": "linear", "kernel_size": [1, 1], "name": "conv2d_51"}, "name": "conv2d_51"}, {"class_name": "BatchNormalization", "inbound_nodes": [[["conv2d_51", 0, 0, {}]]], "config": {"beta_constraint": null, "gamma_initializer": {"class_name": "Ones", "config": {}}, "moving_mean_initializer": {"class_name": "Zeros", "config": {}}, "name": "batch_normalization_51", "epsilon": 0.001, "trainable": true, "moving_variance_initializer": {"class_name": "Ones", "config": {}}, "beta_initializer": {"class_name": "Zeros", "config": {}}, "gamma_constraint": null, "scale": true, "gamma_regularizer": null, "axis": -1, "beta_regularizer": null, "momentum": 0.99, "center": true}, "name": "batch_normalization_51"}, {"class_name": "LeakyReLU", "inbound_nodes": [[["batch_normalization_51", 0, 0, {}]]], "config": {"alpha": 0.10000000149011612, "trainable": true, "name": "leaky_re_lu_51"}, "name": "leaky_re_lu_51"}, {"class_name": "Conv2D", "inbound_nodes": [[["leaky_re_lu_51", 0, 0, {}]]], "config": {"kernel_initializer": {"class_name": "VarianceScaling", "config": {"distribution": "uniform", "scale": 1.0, "seed": null, "mode": "fan_avg"}}, "bias_initializer": {"class_name": "Zeros", "config": {}}, "kernel_constraint": null, "bias_regularizer": null, "bias_constraint": null, "activity_regularizer": null, "trainable": true, "data_format": "channels_last", "padding": "same", "strides": [1, 1], "dilation_rate": [1, 1], "kernel_regularizer": {"class_name": "L1L2", "config": {"l2": 0.0005000000237487257, "l1": 0.0}}, "filters": 1024, "use_bias": false, "activation": "linear", "kernel_size": [3, 3], "name": "conv2d_52"}, "name": "conv2d_52"}, {"class_name": "BatchNormalization", "inbound_nodes": [[["conv2d_52", 0, 0, {}]]], "config": {"beta_constraint": null, "gamma_initializer": {"class_name": "Ones", "config": {}}, "moving_mean_initializer": {"class_name": "Zeros", "config": {}}, "name": "batch_normalization_52", "epsilon": 0.001, "trainable": true, "moving_variance_initializer": {"class_name": "Ones", "config": {}}, "beta_initializer": {"class_name": "Zeros", "config": {}}, "gamma_constraint": null, "scale": true, "gamma_regularizer": null, "axis": -1, "beta_regularizer": null, "momentum": 0.99, "center": true}, "name": "batch_normalization_52"}, {"class_name": "LeakyReLU", "inbound_nodes": [[["batch_normalization_52", 0, 0, {}]]], "config": {"alpha": 0.10000000149011612, "trainable": true, "name": "leaky_re_lu_52"}, "name": "leaky_re_lu_52"}, {"class_name": "Add", "inbound_nodes": [[["add_22", 0, 0, {}], ["leaky_re_lu_52", 0, 0, {}]]], "config": {"trainable": true, "name": "add_23"}, "name": "add_23"}, {"class_name": "Conv2D", "inbound_nodes": [[["add_23", 0, 0, {}]]], "config": {"kernel_initializer": {"class_name": "VarianceScaling", "config": {"distribution": "uniform", "scale": 1.0, "seed": null, "mode": "fan_avg"}}, "bias_initializer": {"class_name": "Zeros", "config": {}}, "kernel_constraint": null, "bias_regularizer": null, "bias_constraint": null, "activity_regularizer": null, "trainable": true, "data_format": "channels_last", "padding": "same", "strides": [1, 1], "dilation_rate": [1, 1], "kernel_regularizer": {"class_name": "L1L2", "config": {"l2": 0.0005000000237487257, "l1": 0.0}}, "filters": 512, "use_bias": false, "activation": "linear", "kernel_size": [1, 1], "name": "conv2d_53"}, "name": "conv2d_53"}, {"class_name": "BatchNormalization", "inbound_nodes": [[["conv2d_53", 0, 0, {}]]], "config": {"beta_constraint": null, "gamma_initializer": {"class_name": "Ones", "config": {}}, "moving_mean_initializer": {"class_name": "Zeros", "config": {}}, "name": "batch_normalization_53", "epsilon": 0.001, "trainable": true, "moving_variance_initializer": {"class_name": "Ones", "config": {}}, "beta_initializer": {"class_name": "Zeros", "config": {}}, "gamma_constraint": null, "scale": true, "gamma_regularizer": null, "axis": -1, "beta_regularizer": null, "momentum": 0.99, "center": true}, "name": "batch_normalization_53"}, {"class_name": "LeakyReLU", "inbound_nodes": [[["batch_normalization_53", 0, 0, {}]]], "config": {"alpha": 0.10000000149011612, "trainable": true, "name": "leaky_re_lu_53"}, "name": "leaky_re_lu_53"}, {"class_name": "Conv2D", "inbound_nodes": [[["leaky_re_lu_53", 0, 0, {}]]], "config": {"kernel_initializer": {"class_name": "VarianceScaling", "config": {"distribution": "uniform", "scale": 1.0, "seed": null, "mode": "fan_avg"}}, "bias_initializer": {"class_name": "Zeros", "config": {}}, "kernel_constraint": null, "bias_regularizer": null, "bias_constraint": null, "activity_regularizer": null, "trainable": true, "data_format": "channels_last", "padding": "same", "strides": [1, 1], "dilation_rate": [1, 1], "kernel_regularizer": {"class_name": "L1L2", "config": {"l2": 0.0005000000237487257, "l1": 0.0}}, "filters": 1024, "use_bias": false, "activation": "linear", "kernel_size": [3, 3], "name": "conv2d_54"}, "name": "conv2d_54"}, {"class_name": "BatchNormalization", "inbound_nodes": [[["conv2d_54", 0, 0, {}]]], "config": {"beta_constraint": null, "gamma_initializer": {"class_name": "Ones", "config": {}}, "moving_mean_initializer": {"class_name": "Zeros", "config": {}}, "name": "batch_normalization_54", "epsilon": 0.001, "trainable": true, "moving_variance_initializer": {"class_name": "Ones", "config": {}}, "beta_initializer": {"class_name": "Zeros", "config": {}}, "gamma_constraint": null, "scale": true, "gamma_regularizer": null, "axis": -1, "beta_regularizer": null, "momentum": 0.99, "center": true}, "name": "batch_normalization_54"}, {"class_name": "LeakyReLU", "inbound_nodes": [[["batch_normalization_54", 0, 0, {}]]], "config": {"alpha": 0.10000000149011612, "trainable": true, "name": "leaky_re_lu_54"}, "name": "leaky_re_lu_54"}, {"class_name": "Conv2D", "inbound_nodes": [[["leaky_re_lu_54", 0, 0, {}]]], "config": {"kernel_initializer": {"class_name": "VarianceScaling", "config": {"distribution": "uniform", "scale": 1.0, "seed": null, "mode": "fan_avg"}}, "bias_initializer": {"class_name": "Zeros", "config": {}}, "kernel_constraint": null, "bias_regularizer": null, "bias_constraint": null, "activity_regularizer": null, "trainable": true, "data_format": "channels_last", "padding": "same", "strides": [1, 1], "dilation_rate": [1, 1], "kernel_regularizer": {"class_name": "L1L2", "config": {"l2": 0.0005000000237487257, "l1": 0.0}}, "filters": 512, "use_bias": false, "activation": "linear", "kernel_size": [1, 1], "name": "conv2d_55"}, "name": "conv2d_55"}, {"class_name": "BatchNormalization", "inbound_nodes": [[["conv2d_55", 0, 0, {}]]], "config": {"beta_constraint": null, "gamma_initializer": {"class_name": "Ones", "config": {}}, "moving_mean_initializer": {"class_name": "Zeros", "config": {}}, "name": "batch_normalization_55", "epsilon": 0.001, "trainable": true, "moving_variance_initializer": {"class_name": "Ones", "config": {}}, "beta_initializer": {"class_name": "Zeros", "config": {}}, "gamma_constraint": null, "scale": true, "gamma_regularizer": null, "axis": -1, "beta_regularizer": null, "momentum": 0.99, "center": true}, "name": "batch_normalization_55"}, {"class_name": "LeakyReLU", "inbound_nodes": [[["batch_normalization_55", 0, 0, {}]]], "config": {"alpha": 0.10000000149011612, "trainable": true, "name": "leaky_re_lu_55"}, "name": "leaky_re_lu_55"}, {"class_name": "Conv2D", "inbound_nodes": [[["leaky_re_lu_55", 0, 0, {}]]], "config": {"kernel_initializer": {"class_name": "VarianceScaling", "config": {"distribution": "uniform", "scale": 1.0, "seed": null, "mode": "fan_avg"}}, "bias_initializer": {"class_name": "Zeros", "config": {}}, "kernel_constraint": null, "bias_regularizer": null, "bias_constraint": null, "activity_regularizer": null, "trainable": true, "data_format": "channels_last", "padding": "same", "strides": [1, 1], "dilation_rate": [1, 1], "kernel_regularizer": {"class_name": "L1L2", "config": {"l2": 0.0005000000237487257, "l1": 0.0}}, "filters": 1024, "use_bias": false, "activation": "linear", "kernel_size": [3, 3], "name": "conv2d_56"}, "name": "conv2d_56"}, {"class_name": "BatchNormalization", "inbound_nodes": [[["conv2d_56", 0, 0, {}]]], "config": {"beta_constraint": null, "gamma_initializer": {"class_name": "Ones", "config": {}}, "moving_mean_initializer": {"class_name": "Zeros", "config": {}}, "name": "batch_normalization_56", "epsilon": 0.001, "trainable": true, "moving_variance_initializer": {"class_name": "Ones", "config": {}}, "beta_initializer": {"class_name": "Zeros", "config": {}}, "gamma_constraint": null, "scale": true, "gamma_regularizer": null, "axis": -1, "beta_regularizer": null, "momentum": 0.99, "center": true}, "name": "batch_normalization_56"}, {"class_name": "LeakyReLU", "inbound_nodes": [[["batch_normalization_56", 0, 0, {}]]], "config": {"alpha": 0.10000000149011612, "trainable": true, "name": "leaky_re_lu_56"}, "name": "leaky_re_lu_56"}, {"class_name": "Conv2D", "inbound_nodes": [[["leaky_re_lu_56", 0, 0, {}]]], "config": {"kernel_initializer": {"class_name": "VarianceScaling", "config": {"distribution": "uniform", "scale": 1.0, "seed": null, "mode": "fan_avg"}}, "bias_initializer": {"class_name": "Zeros", "config": {}}, "kernel_constraint": null, "bias_regularizer": null, "bias_constraint": null, "activity_regularizer": null, "trainable": true, "data_format": "channels_last", "padding": "same", "strides": [1, 1], "dilation_rate": [1, 1], "kernel_regularizer": {"class_name": "L1L2", "config": {"l2": 0.0005000000237487257, "l1": 0.0}}, "filters": 512, "use_bias": false, "activation": "linear", "kernel_size": [1, 1], "name": "conv2d_57"}, "name": "conv2d_57"}, {"class_name": "BatchNormalization", "inbound_nodes": [[["conv2d_57", 0, 0, {}]]], "config": {"beta_constraint": null, "gamma_initializer": {"class_name": "Ones", "config": {}}, "moving_mean_initializer": {"class_name": "Zeros", "config": {}}, "name": "batch_normalization_57", "epsilon": 0.001, "trainable": true, "moving_variance_initializer": {"class_name": "Ones", "config": {}}, "beta_initializer": {"class_name": "Zeros", "config": {}}, "gamma_constraint": null, "scale": true, "gamma_regularizer": null, "axis": -1, "beta_regularizer": null, "momentum": 0.99, "center": true}, "name": "batch_normalization_57"}, {"class_name": "LeakyReLU", "inbound_nodes": [[["batch_normalization_57", 0, 0, {}]]], "config": {"alpha": 0.10000000149011612, "trainable": true, "name": "leaky_re_lu_57"}, "name": "leaky_re_lu_57"}, {"class_name": "Conv2D", "inbound_nodes": [[["leaky_re_lu_57", 0, 0, {}]]], "config": {"kernel_initializer": {"class_name": "VarianceScaling", "config": {"distribution": "uniform", "scale": 1.0, "seed": null, "mode": "fan_avg"}}, "bias_initializer": {"class_name": "Zeros", "config": {}}, "kernel_constraint": null, "bias_regularizer": null, "bias_constraint": null, "activity_regularizer": null, "trainable": true, "data_format": "channels_last", "padding": "same", "strides": [1, 1], "dilation_rate": [1, 1], "kernel_regularizer": {"class_name": "L1L2", "config": {"l2": 0.0005000000237487257, "l1": 0.0}}, "filters": 256, "use_bias": false, "activation": "linear", "kernel_size": [1, 1], "name": "conv2d_60"}, "name": "conv2d_60"}, {"class_name": "BatchNormalization", "inbound_nodes": [[["conv2d_60", 0, 0, {}]]], "config": {"beta_constraint": null, "gamma_initializer": {"class_name": "Ones", "config": {}}, "moving_mean_initializer": {"class_name": "Zeros", "config": {}}, "name": "batch_normalization_59", "epsilon": 0.001, "trainable": true, "moving_variance_initializer": {"class_name": "Ones", "config": {}}, "beta_initializer": {"class_name": "Zeros", "config": {}}, "gamma_constraint": null, "scale": true, "gamma_regularizer": null, "axis": -1, "beta_regularizer": null, "momentum": 0.99, "center": true}, "name": "batch_normalization_59"}, {"class_name": "LeakyReLU", "inbound_nodes": [[["batch_normalization_59", 0, 0, {}]]], "config": {"alpha": 0.10000000149011612, "trainable": true, "name": "leaky_re_lu_59"}, "name": "leaky_re_lu_59"}, {"class_name": "UpSampling2D", "inbound_nodes": [[["leaky_re_lu_59", 0, 0, {}]]], "config": {"size": [2, 2], "trainable": true, "name": "up_sampling2d_1", "data_format": "channels_last"}, "name": "up_sampling2d_1"}, {"class_name": "Concatenate", "inbound_nodes": [[["up_sampling2d_1", 0, 0, {}], ["add_19", 0, 0, {}]]], "config": {"trainable": true, "name": "concatenate_1", "axis": -1}, "name": "concatenate_1"}, {"class_name": "Conv2D", "inbound_nodes": [[["concatenate_1", 0, 0, {}]]], "config": {"kernel_initializer": {"class_name": "VarianceScaling", "config": {"distribution": "uniform", "scale": 1.0, "seed": null, "mode": "fan_avg"}}, "bias_initializer": {"class_name": "Zeros", "config": {}}, "kernel_constraint": null, "bias_regularizer": null, "bias_constraint": null, "activity_regularizer": null, "trainable": true, "data_format": "channels_last", "padding": "same", "strides": [1, 1], "dilation_rate": [1, 1], "kernel_regularizer": {"class_name": "L1L2", "config": {"l2": 0.0005000000237487257, "l1": 0.0}}, "filters": 256, "use_bias": false, "activation": "linear", "kernel_size": [1, 1], "name": "conv2d_61"}, "name": "conv2d_61"}, {"class_name": "BatchNormalization", "inbound_nodes": [[["conv2d_61", 0, 0, {}]]], "config": {"beta_constraint": null, "gamma_initializer": {"class_name": "Ones", "config": {}}, "moving_mean_initializer": {"class_name": "Zeros", "config": {}}, "name": "batch_normalization_60", "epsilon": 0.001, "trainable": true, "moving_variance_initializer": {"class_name": "Ones", "config": {}}, "beta_initializer": {"class_name": "Zeros", "config": {}}, "gamma_constraint": null, "scale": true, "gamma_regularizer": null, "axis": -1, "beta_regularizer": null, "momentum": 0.99, "center": true}, "name": "batch_normalization_60"}, {"class_name": "LeakyReLU", "inbound_nodes": [[["batch_normalization_60", 0, 0, {}]]], "config": {"alpha": 0.10000000149011612, "trainable": true, "name": "leaky_re_lu_60"}, "name": "leaky_re_lu_60"}, {"class_name": "Conv2D", "inbound_nodes": [[["leaky_re_lu_60", 0, 0, {}]]], "config": {"kernel_initializer": {"class_name": "VarianceScaling", "config": {"distribution": "uniform", "scale": 1.0, "seed": null, "mode": "fan_avg"}}, "bias_initializer": {"class_name": "Zeros", "config": {}}, "kernel_constraint": null, "bias_regularizer": null, "bias_constraint": null, "activity_regularizer": null, "trainable": true, "data_format": "channels_last", "padding": "same", "strides": [1, 1], "dilation_rate": [1, 1], "kernel_regularizer": {"class_name": "L1L2", "config": {"l2": 0.0005000000237487257, "l1": 0.0}}, "filters": 512, "use_bias": false, "activation": "linear", "kernel_size": [3, 3], "name": "conv2d_62"}, "name": "conv2d_62"}, {"class_name": "BatchNormalization", "inbound_nodes": [[["conv2d_62", 0, 0, {}]]], "config": {"beta_constraint": null, "gamma_initializer": {"class_name": "Ones", "config": {}}, "moving_mean_initializer": {"class_name": "Zeros", "config": {}}, "name": "batch_normalization_61", "epsilon": 0.001, "trainable": true, "moving_variance_initializer": {"class_name": "Ones", "config": {}}, "beta_initializer": {"class_name": "Zeros", "config": {}}, "gamma_constraint": null, "scale": true, "gamma_regularizer": null, "axis": -1, "beta_regularizer": null, "momentum": 0.99, "center": true}, "name": "batch_normalization_61"}, {"class_name": "LeakyReLU", "inbound_nodes": [[["batch_normalization_61", 0, 0, {}]]], "config": {"alpha": 0.10000000149011612, "trainable": true, "name": "leaky_re_lu_61"}, "name": "leaky_re_lu_61"}, {"class_name": "Conv2D", "inbound_nodes": [[["leaky_re_lu_61", 0, 0, {}]]], "config": {"kernel_initializer": {"class_name": "VarianceScaling", "config": {"distribution": "uniform", "scale": 1.0, "seed": null, "mode": "fan_avg"}}, "bias_initializer": {"class_name": "Zeros", "config": {}}, "kernel_constraint": null, "bias_regularizer": null, "bias_constraint": null, "activity_regularizer": null, "trainable": true, "data_format": "channels_last", "padding": "same", "strides": [1, 1], "dilation_rate": [1, 1], "kernel_regularizer": {"class_name": "L1L2", "config": {"l2": 0.0005000000237487257, "l1": 0.0}}, "filters": 256, "use_bias": false, "activation": "linear", "kernel_size": [1, 1], "name": "conv2d_63"}, "name": "conv2d_63"}, {"class_name": "BatchNormalization", "inbound_nodes": [[["conv2d_63", 0, 0, {}]]], "config": {"beta_constraint": null, "gamma_initializer": {"class_name": "Ones", "config": {}}, "moving_mean_initializer": {"class_name": "Zeros", "config": {}}, "name": "batch_normalization_62", "epsilon": 0.001, "trainable": true, "moving_variance_initializer": {"class_name": "Ones", "config": {}}, "beta_initializer": {"class_name": "Zeros", "config": {}}, "gamma_constraint": null, "scale": true, "gamma_regularizer": null, "axis": -1, "beta_regularizer": null, "momentum": 0.99, "center": true}, "name": "batch_normalization_62"}, {"class_name": "LeakyReLU", "inbound_nodes": [[["batch_normalization_62", 0, 0, {}]]], "config": {"alpha": 0.10000000149011612, "trainable": true, "name": "leaky_re_lu_62"}, "name": "leaky_re_lu_62"}, {"class_name": "Conv2D", "inbound_nodes": [[["leaky_re_lu_62", 0, 0, {}]]], "config": {"kernel_initializer": {"class_name": "VarianceScaling", "config": {"distribution": "uniform", "scale": 1.0, "seed": null, "mode": "fan_avg"}}, "bias_initializer": {"class_name": "Zeros", "config": {}}, "kernel_constraint": null, "bias_regularizer": null, "bias_constraint": null, "activity_regularizer": null, "trainable": true, "data_format": "channels_last", "padding": "same", "strides": [1, 1], "dilation_rate": [1, 1], "kernel_regularizer": {"class_name": "L1L2", "config": {"l2": 0.0005000000237487257, "l1": 0.0}}, "filters": 512, "use_bias": false, "activation": "linear", "kernel_size": [3, 3], "name": "conv2d_64"}, "name": "conv2d_64"}, {"class_name": "BatchNormalization", "inbound_nodes": [[["conv2d_64", 0, 0, {}]]], "config": {"beta_constraint": null, "gamma_initializer": {"class_name": "Ones", "config": {}}, "moving_mean_initializer": {"class_name": "Zeros", "config": {}}, "name": "batch_normalization_63", "epsilon": 0.001, "trainable": true, "moving_variance_initializer": {"class_name": "Ones", "config": {}}, "beta_initializer": {"class_name": "Zeros", "config": {}}, "gamma_constraint": null, "scale": true, "gamma_regularizer": null, "axis": -1, "beta_regularizer": null, "momentum": 0.99, "center": true}, "name": "batch_normalization_63"}, {"class_name": "LeakyReLU", "inbound_nodes": [[["batch_normalization_63", 0, 0, {}]]], "config": {"alpha": 0.10000000149011612, "trainable": true, "name": "leaky_re_lu_63"}, "name": "leaky_re_lu_63"}, {"class_name": "Conv2D", "inbound_nodes": [[["leaky_re_lu_63", 0, 0, {}]]], "config": {"kernel_initializer": {"class_name": "VarianceScaling", "config": {"distribution": "uniform", "scale": 1.0, "seed": null, "mode": "fan_avg"}}, "bias_initializer": {"class_name": "Zeros", "config": {}}, "kernel_constraint": null, "bias_regularizer": null, "bias_constraint": null, "activity_regularizer": null, "trainable": true, "data_format": "channels_last", "padding": "same", "strides": [1, 1], "dilation_rate": [1, 1], "kernel_regularizer": {"class_name": "L1L2", "config": {"l2": 0.0005000000237487257, "l1": 0.0}}, "filters": 256, "use_bias": false, "activation": "linear", "kernel_size": [1, 1], "name": "conv2d_65"}, "name": "conv2d_65"}, {"class_name": "BatchNormalization", "inbound_nodes": [[["conv2d_65", 0, 0, {}]]], "config": {"beta_constraint": null, "gamma_initializer": {"class_name": "Ones", "config": {}}, "moving_mean_initializer": {"class_name": "Zeros", "config": {}}, "name": "batch_normalization_64", "epsilon": 0.001, "trainable": true, "moving_variance_initializer": {"class_name": "Ones", "config": {}}, "beta_initializer": {"class_name": "Zeros", "config": {}}, "gamma_constraint": null, "scale": true, "gamma_regularizer": null, "axis": -1, "beta_regularizer": null, "momentum": 0.99, "center": true}, "name": "batch_normalization_64"}, {"class_name": "LeakyReLU", "inbound_nodes": [[["batch_normalization_64", 0, 0, {}]]], "config": {"alpha": 0.10000000149011612, "trainable": true, "name": "leaky_re_lu_64"}, "name": "leaky_re_lu_64"}, {"class_name": "Conv2D", "inbound_nodes": [[["leaky_re_lu_64", 0, 0, {}]]], "config": {"kernel_initializer": {"class_name": "VarianceScaling", "config": {"distribution": "uniform", "scale": 1.0, "seed": null, "mode": "fan_avg"}}, "bias_initializer": {"class_name": "Zeros", "config": {}}, "kernel_constraint": null, "bias_regularizer": null, "bias_constraint": null, "activity_regularizer": null, "trainable": true, "data_format": "channels_last", "padding": "same", "strides": [1, 1], "dilation_rate": [1, 1], "kernel_regularizer": {"class_name": "L1L2", "config": {"l2": 0.0005000000237487257, "l1": 0.0}}, "filters": 128, "use_bias": false, "activation": "linear", "kernel_size": [1, 1], "name": "conv2d_68"}, "name": "conv2d_68"}, {"class_name": "BatchNormalization", "inbound_nodes": [[["conv2d_68", 0, 0, {}]]], "config": {"beta_constraint": null, "gamma_initializer": {"class_name": "Ones", "config": {}}, "moving_mean_initializer": {"class_name": "Zeros", "config": {}}, "name": "batch_normalization_66", "epsilon": 0.001, "trainable": true, "moving_variance_initializer": {"class_name": "Ones", "config": {}}, "beta_initializer": {"class_name": "Zeros", "config": {}}, "gamma_constraint": null, "scale": true, "gamma_regularizer": null, "axis": -1, "beta_regularizer": null, "momentum": 0.99, "center": true}, "name": "batch_normalization_66"}, {"class_name": "LeakyReLU", "inbound_nodes": [[["batch_normalization_66", 0, 0, {}]]], "config": {"alpha": 0.10000000149011612, "trainable": true, "name": "leaky_re_lu_66"}, "name": "leaky_re_lu_66"}, {"class_name": "UpSampling2D", "inbound_nodes": [[["leaky_re_lu_66", 0, 0, {}]]], "config": {"size": [2, 2], "trainable": true, "name": "up_sampling2d_2", "data_format": "channels_last"}, "name": "up_sampling2d_2"}, {"class_name": "Concatenate", "inbound_nodes": [[["up_sampling2d_2", 0, 0, {}], ["add_11", 0, 0, {}]]], "config": {"trainable": true, "name": "concatenate_2", "axis": -1}, "name": "concatenate_2"}, {"class_name": "Conv2D", "inbound_nodes": [[["concatenate_2", 0, 0, {}]]], "config": {"kernel_initializer": {"class_name": "VarianceScaling", "config": {"distribution": "uniform", "scale": 1.0, "seed": null, "mode": "fan_avg"}}, "bias_initializer": {"class_name": "Zeros", "config": {}}, "kernel_constraint": null, "bias_regularizer": null, "bias_constraint": null, "activity_regularizer": null, "trainable": true, "data_format": "channels_last", "padding": "same", "strides": [1, 1], "dilation_rate": [1, 1], "kernel_regularizer": {"class_name": "L1L2", "config": {"l2": 0.0005000000237487257, "l1": 0.0}}, "filters": 128, "use_bias": false, "activation": "linear", "kernel_size": [1, 1], "name": "conv2d_69"}, "name": "conv2d_69"}, {"class_name": "BatchNormalization", "inbound_nodes": [[["conv2d_69", 0, 0, {}]]], "config": {"beta_constraint": null, "gamma_initializer": {"class_name": "Ones", "config": {}}, "moving_mean_initializer": {"class_name": "Zeros", "config": {}}, "name": "batch_normalization_67", "epsilon": 0.001, "trainable": true, "moving_variance_initializer": {"class_name": "Ones", "config": {}}, "beta_initializer": {"class_name": "Zeros", "config": {}}, "gamma_constraint": null, "scale": true, "gamma_regularizer": null, "axis": -1, "beta_regularizer": null, "momentum": 0.99, "center": true}, "name": "batch_normalization_67"}, {"class_name": "LeakyReLU", "inbound_nodes": [[["batch_normalization_67", 0, 0, {}]]], "config": {"alpha": 0.10000000149011612, "trainable": true, "name": "leaky_re_lu_67"}, "name": "leaky_re_lu_67"}, {"class_name": "Conv2D", "inbound_nodes": [[["leaky_re_lu_67", 0, 0, {}]]], "config": {"kernel_initializer": {"class_name": "VarianceScaling", "config": {"distribution": "uniform", "scale": 1.0, "seed": null, "mode": "fan_avg"}}, "bias_initializer": {"class_name": "Zeros", "config": {}}, "kernel_constraint": null, "bias_regularizer": null, "bias_constraint": null, "activity_regularizer": null, "trainable": true, "data_format": "channels_last", "padding": "same", "strides": [1, 1], "dilation_rate": [1, 1], "kernel_regularizer": {"class_name": "L1L2", "config": {"l2": 0.0005000000237487257, "l1": 0.0}}, "filters": 256, "use_bias": false, "activation": "linear", "kernel_size": [3, 3], "name": "conv2d_70"}, "name": "conv2d_70"}, {"class_name": "BatchNormalization", "inbound_nodes": [[["conv2d_70", 0, 0, {}]]], "config": {"beta_constraint": null, "gamma_initializer": {"class_name": "Ones", "config": {}}, "moving_mean_initializer": {"class_name": "Zeros", "config": {}}, "name": "batch_normalization_68", "epsilon": 0.001, "trainable": true, "moving_variance_initializer": {"class_name": "Ones", "config": {}}, "beta_initializer": {"class_name": "Zeros", "config": {}}, "gamma_constraint": null, "scale": true, "gamma_regularizer": null, "axis": -1, "beta_regularizer": null, "momentum": 0.99, "center": true}, "name": "batch_normalization_68"}, {"class_name": "LeakyReLU", "inbound_nodes": [[["batch_normalization_68", 0, 0, {}]]], "config": {"alpha": 0.10000000149011612, "trainable": true, "name": "leaky_re_lu_68"}, "name": "leaky_re_lu_68"}, {"class_name": "Conv2D", "inbound_nodes": [[["leaky_re_lu_68", 0, 0, {}]]], "config": {"kernel_initializer": {"class_name": "VarianceScaling", "config": {"distribution": "uniform", "scale": 1.0, "seed": null, "mode": "fan_avg"}}, "bias_initializer": {"class_name": "Zeros", "config": {}}, "kernel_constraint": null, "bias_regularizer": null, "bias_constraint": null, "activity_regularizer": null, "trainable": true, "data_format": "channels_last", "padding": "same", "strides": [1, 1], "dilation_rate": [1, 1], "kernel_regularizer": {"class_name": "L1L2", "config": {"l2": 0.0005000000237487257, "l1": 0.0}}, "filters": 128, "use_bias": false, "activation": "linear", "kernel_size": [1, 1], "name": "conv2d_71"}, "name": "conv2d_71"}, {"class_name": "BatchNormalization", "inbound_nodes": [[["conv2d_71", 0, 0, {}]]], "config": {"beta_constraint": null, "gamma_initializer": {"class_name": "Ones", "config": {}}, "moving_mean_initializer": {"class_name": "Zeros", "config": {}}, "name": "batch_normalization_69", "epsilon": 0.001, "trainable": true, "moving_variance_initializer": {"class_name": "Ones", "config": {}}, "beta_initializer": {"class_name": "Zeros", "config": {}}, "gamma_constraint": null, "scale": true, "gamma_regularizer": null, "axis": -1, "beta_regularizer": null, "momentum": 0.99, "center": true}, "name": "batch_normalization_69"}, {"class_name": "LeakyReLU", "inbound_nodes": [[["batch_normalization_69", 0, 0, {}]]], "config": {"alpha": 0.10000000149011612, "trainable": true, "name": "leaky_re_lu_69"}, "name": "leaky_re_lu_69"}, {"class_name": "Conv2D", "inbound_nodes": [[["leaky_re_lu_69", 0, 0, {}]]], "config": {"kernel_initializer": {"class_name": "VarianceScaling", "config": {"distribution": "uniform", "scale": 1.0, "seed": null, "mode": "fan_avg"}}, "bias_initializer": {"class_name": "Zeros", "config": {}}, "kernel_constraint": null, "bias_regularizer": null, "bias_constraint": null, "activity_regularizer": null, "trainable": true, "data_format": "channels_last", "padding": "same", "strides": [1, 1], "dilation_rate": [1, 1], "kernel_regularizer": {"class_name": "L1L2", "config": {"l2": 0.0005000000237487257, "l1": 0.0}}, "filters": 256, "use_bias": false, "activation": "linear", "kernel_size": [3, 3], "name": "conv2d_72"}, "name": "conv2d_72"}, {"class_name": "BatchNormalization", "inbound_nodes": [[["conv2d_72", 0, 0, {}]]], "config": {"beta_constraint": null, "gamma_initializer": {"class_name": "Ones", "config": {}}, "moving_mean_initializer": {"class_name": "Zeros", "config": {}}, "name": "batch_normalization_70", "epsilon": 0.001, "trainable": true, "moving_variance_initializer": {"class_name": "Ones", "config": {}}, "beta_initializer": {"class_name": "Zeros", "config": {}}, "gamma_constraint": null, "scale": true, "gamma_regularizer": null, "axis": -1, "beta_regularizer": null, "momentum": 0.99, "center": true}, "name": "batch_normalization_70"}, {"class_name": "LeakyReLU", "inbound_nodes": [[["batch_normalization_70", 0, 0, {}]]], "config": {"alpha": 0.10000000149011612, "trainable": true, "name": "leaky_re_lu_70"}, "name": "leaky_re_lu_70"}, {"class_name": "Conv2D", "inbound_nodes": [[["leaky_re_lu_70", 0, 0, {}]]], "config": {"kernel_initializer": {"class_name": "VarianceScaling", "config": {"distribution": "uniform", "scale": 1.0, "seed": null, "mode": "fan_avg"}}, "bias_initializer": {"class_name": "Zeros", "config": {}}, "kernel_constraint": null, "bias_regularizer": null, "bias_constraint": null, "activity_regularizer": null, "trainable": true, "data_format": "channels_last", "padding": "same", "strides": [1, 1], "dilation_rate": [1, 1], "kernel_regularizer": {"class_name": "L1L2", "config": {"l2": 0.0005000000237487257, "l1": 0.0}}, "filters": 128, "use_bias": false, "activation": "linear", "kernel_size": [1, 1], "name": "conv2d_73"}, "name": "conv2d_73"}, {"class_name": "BatchNormalization", "inbound_nodes": [[["conv2d_73", 0, 0, {}]]], "config": {"beta_constraint": null, "gamma_initializer": {"class_name": "Ones", "config": {}}, "moving_mean_initializer": {"class_name": "Zeros", "config": {}}, "name": "batch_normalization_71", "epsilon": 0.001, "trainable": true, "moving_variance_initializer": {"class_name": "Ones", "config": {}}, "beta_initializer": {"class_name": "Zeros", "config": {}}, "gamma_constraint": null, "scale": true, "gamma_regularizer": null, "axis": -1, "beta_regularizer": null, "momentum": 0.99, "center": true}, "name": "batch_normalization_71"}, {"class_name": "LeakyReLU", "inbound_nodes": [[["batch_normalization_71", 0, 0, {}]]], "config": {"alpha": 0.10000000149011612, "trainable": true, "name": "leaky_re_lu_71"}, "name": "leaky_re_lu_71"}, {"class_name": "Conv2D", "inbound_nodes": [[["leaky_re_lu_57", 0, 0, {}]]], "config": {"kernel_initializer": {"class_name": "VarianceScaling", "config": {"distribution": "uniform", "scale": 1.0, "seed": null, "mode": "fan_avg"}}, "bias_initializer": {"class_name": "Zeros", "config": {}}, "kernel_constraint": null, "bias_regularizer": null, "bias_constraint": null, "activity_regularizer": null, "trainable": true, "data_format": "channels_last", "padding": "same", "strides": [1, 1], "dilation_rate": [1, 1], "kernel_regularizer": {"class_name": "L1L2", "config": {"l2": 0.0005000000237487257, "l1": 0.0}}, "filters": 1024, "use_bias": false, "activation": "linear", "kernel_size": [3, 3], "name": "conv2d_58"}, "name": "conv2d_58"}, {"class_name": "Conv2D", "inbound_nodes": [[["leaky_re_lu_64", 0, 0, {}]]], "config": {"kernel_initializer": {"class_name": "VarianceScaling", "config": {"distribution": "uniform", "scale": 1.0, "seed": null, "mode": "fan_avg"}}, "bias_initializer": {"class_name": "Zeros", "config": {}}, "kernel_constraint": null, "bias_regularizer": null, "bias_constraint": null, "activity_regularizer": null, "trainable": true, "data_format": "channels_last", "padding": "same", "strides": [1, 1], "dilation_rate": [1, 1], "kernel_regularizer": {"class_name": "L1L2", "config": {"l2": 0.0005000000237487257, "l1": 0.0}}, "filters": 512, "use_bias": false, "activation": "linear", "kernel_size": [3, 3], "name": "conv2d_66"}, "name": "conv2d_66"}, {"class_name": "Conv2D", "inbound_nodes": [[["leaky_re_lu_71", 0, 0, {}]]], "config": {"kernel_initializer": {"class_name": "VarianceScaling", "config": {"distribution": "uniform", "scale": 1.0, "seed": null, "mode": "fan_avg"}}, "bias_initializer": {"class_name": "Zeros", "config": {}}, "kernel_constraint": null, "bias_regularizer": null, "bias_constraint": null, "activity_regularizer": null, "trainable": true, "data_format": "channels_last", "padding": "same", "strides": [1, 1], "dilation_rate": [1, 1], "kernel_regularizer": {"class_name": "L1L2", "config": {"l2": 0.0005000000237487257, "l1": 0.0}}, "filters": 256, "use_bias": false, "activation": "linear", "kernel_size": [3, 3], "name": "conv2d_74"}, "name": "conv2d_74"}, {"class_name": "BatchNormalization", "inbound_nodes": [[["conv2d_58", 0, 0, {}]]], "config": {"beta_constraint": null, "gamma_initializer": {"class_name": "Ones", "config": {}}, "moving_mean_initializer": {"class_name": "Zeros", "config": {}}, "name": "batch_normalization_58", "epsilon": 0.001, "trainable": true, "moving_variance_initializer": {"class_name": "Ones", "config": {}}, "beta_initializer": {"class_name": "Zeros", "config": {}}, "gamma_constraint": null, "scale": true, "gamma_regularizer": null, "axis": -1, "beta_regularizer": null, "momentum": 0.99, "center": true}, "name": "batch_normalization_58"}, {"class_name": "BatchNormalization", "inbound_nodes": [[["conv2d_66", 0, 0, {}]]], "config": {"beta_constraint": null, "gamma_initializer": {"class_name": "Ones", "config": {}}, "moving_mean_initializer": {"class_name": "Zeros", "config": {}}, "name": "batch_normalization_65", "epsilon": 0.001, "trainable": true, "moving_variance_initializer": {"class_name": "Ones", "config": {}}, "beta_initializer": {"class_name": "Zeros", "config": {}}, "gamma_constraint": null, "scale": true, "gamma_regularizer": null, "axis": -1, "beta_regularizer": null, "momentum": 0.99, "center": true}, "name": "batch_normalization_65"}, {"class_name": "BatchNormalization", "inbound_nodes": [[["conv2d_74", 0, 0, {}]]], "config": {"beta_constraint": null, "gamma_initializer": {"class_name": "Ones", "config": {}}, "moving_mean_initializer": {"class_name": "Zeros", "config": {}}, "name": "batch_normalization_72", "epsilon": 0.001, "trainable": true, "moving_variance_initializer": {"class_name": "Ones", "config": {}}, "beta_initializer": {"class_name": "Zeros", "config": {}}, "gamma_constraint": null, "scale": true, "gamma_regularizer": null, "axis": -1, "beta_regularizer": null, "momentum": 0.99, "center": true}, "name": "batch_normalization_72"}, {"class_name": "LeakyReLU", "inbound_nodes": [[["batch_normalization_58", 0, 0, {}]]], "config": {"alpha": 0.10000000149011612, "trainable": true, "name": "leaky_re_lu_58"}, "name": "leaky_re_lu_58"}, {"class_name": "LeakyReLU", "inbound_nodes": [[["batch_normalization_65", 0, 0, {}]]], "config": {"alpha": 0.10000000149011612, "trainable": true, "name": "leaky_re_lu_65"}, "name": "leaky_re_lu_65"}, {"class_name": "LeakyReLU", "inbound_nodes": [[["batch_normalization_72", 0, 0, {}]]], "config": {"alpha": 0.10000000149011612, "trainable": true, "name": "leaky_re_lu_72"}, "name": "leaky_re_lu_72"}, {"class_name": "Conv2D", "inbound_nodes": [[["leaky_re_lu_58", 0, 0, {}]]], "config": {"kernel_initializer": {"class_name": "VarianceScaling", "config": {"distribution": "uniform", "scale": 1.0, "seed": null, "mode": "fan_avg"}}, "bias_initializer": {"class_name": "Zeros", "config": {}}, "kernel_constraint": null, "bias_regularizer": null, "bias_constraint": null, "activity_regularizer": null, "trainable": true, "data_format": "channels_last", "padding": "same", "strides": [1, 1], "dilation_rate": [1, 1], "kernel_regularizer": {"class_name": "L1L2", "config": {"l2": 0.0005000000237487257, "l1": 0.0}}, "filters": 255, "use_bias": true, "activation": "linear", "kernel_size": [1, 1], "name": "conv2d_59"}, "name": "conv2d_59"}, {"class_name": "Conv2D", "inbound_nodes": [[["leaky_re_lu_65", 0, 0, {}]]], "config": {"kernel_initializer": {"class_name": "VarianceScaling", "config": {"distribution": "uniform", "scale": 1.0, "seed": null, "mode": "fan_avg"}}, "bias_initializer": {"class_name": "Zeros", "config": {}}, "kernel_constraint": null, "bias_regularizer": null, "bias_constraint": null, "activity_regularizer": null, "trainable": true, "data_format": "channels_last", "padding": "same", "strides": [1, 1], "dilation_rate": [1, 1], "kernel_regularizer": {"class_name": "L1L2", "config": {"l2": 0.0005000000237487257, "l1": 0.0}}, "filters": 255, "use_bias": true, "activation": "linear", "kernel_size": [1, 1], "name": "conv2d_67"}, "name": "conv2d_67"}, {"class_name": "Conv2D", "inbound_nodes": [[["leaky_re_lu_72", 0, 0, {}]]], "config": {"kernel_initializer": {"class_name": "VarianceScaling", "config": {"distribution": "uniform", "scale": 1.0, "seed": null, "mode": "fan_avg"}}, "bias_initializer": {"class_name": "Zeros", "config": {}}, "kernel_constraint": null, "bias_regularizer": null, "bias_constraint": null, "activity_regularizer": null, "trainable": true, "data_format": "channels_last", "padding": "same", "strides": [1, 1], "dilation_rate": [1, 1], "kernel_regularizer": {"class_name": "L1L2", "config": {"l2": 0.0005000000237487257, "l1": 0.0}}, "filters": 255, "use_bias": true, "activation": "linear", "kernel_size": [1, 1], "name": "conv2d_75"}, "name": "conv2d_75"}], "output_layers": [["conv2d_59", 0, 0], ["conv2d_67", 0, 0], ["conv2d_75", 0, 0]], "input_layers": [["input_1", 0, 0]], "name": "model_1"}}, "backend": "tensorflow"}, "weightsManifest": [{"paths": ["group1-shard1of60", "group1-shard2of60", "group1-shard3of60", "group1-shard4of60", "group1-shard5of60", "group1-shard6of60", "group1-shard7of60", "group1-shard8of60", "group1-shard9of60", "group1-shard10of60", "group1-shard11of60", "group1-shard12of60", "group1-shard13of60", "group1-shard14of60", "group1-shard15of60", "group1-shard16of60", "group1-shard17of60", "group1-shard18of60", "group1-shard19of60", "group1-shard20of60", "group1-shard21of60", "group1-shard22of60", "group1-shard23of60", "group1-shard24of60", "group1-shard25of60", "group1-shard26of60", "group1-shard27of60", "group1-shard28of60", "group1-shard29of60", "group1-shard30of60", "group1-shard31of60", "group1-shard32of60", "group1-shard33of60", "group1-shard34of60", "group1-shard35of60", "group1-shard36of60", "group1-shard37of60", "group1-shard38of60", "group1-shard39of60", "group1-shard40of60", "group1-shard41of60", "group1-shard42of60", "group1-shard43of60", "group1-shard44of60", "group1-shard45of60", "group1-shard46of60", "group1-shard47of60", "group1-shard48of60", "group1-shard49of60", "group1-shard50of60", "group1-shard51of60", "group1-shard52of60", "group1-shard53of60", "group1-shard54of60", "group1-shard55of60", "group1-shard56of60", "group1-shard57of60", "group1-shard58of60", "group1-shard59of60", "group1-shard60of60"], "weights": [{"dtype": "float32", "shape": [32], "name": "batch_normalization_1/gamma"}, {"dtype": "float32", "shape": [32], "name": "batch_normalization_1/beta"}, {"dtype": "float32", "shape": [32], "name": "batch_normalization_1/moving_mean"}, {"dtype": "float32", "shape": [32], "name": "batch_normalization_1/moving_variance"}, {"dtype": "float32", "shape": [256], "name": "batch_normalization_10/gamma"}, {"dtype": "float32", "shape": [256], "name": "batch_normalization_10/beta"}, {"dtype": "float32", "shape": [256], "name": "batch_normalization_10/moving_mean"}, {"dtype": "float32", "shape": [256], "name": "batch_normalization_10/moving_variance"}, {"dtype": "float32", "shape": [128], "name": "batch_normalization_11/gamma"}, {"dtype": "float32", "shape": [128], "name": "batch_normalization_11/beta"}, {"dtype": "float32", "shape": [128], "name": "batch_normalization_11/moving_mean"}, {"dtype": "float32", "shape": [128], "name": "batch_normalization_11/moving_variance"}, {"dtype": "float32", "shape": [256], "name": "batch_normalization_12/gamma"}, {"dtype": "float32", "shape": [256], "name": "batch_normalization_12/beta"}, {"dtype": "float32", "shape": [256], "name": "batch_normalization_12/moving_mean"}, {"dtype": "float32", "shape": [256], "name": "batch_normalization_12/moving_variance"}, {"dtype": "float32", "shape": [128], "name": "batch_normalization_13/gamma"}, {"dtype": "float32", "shape": [128], "name": "batch_normalization_13/beta"}, {"dtype": "float32", "shape": [128], "name": "batch_normalization_13/moving_mean"}, {"dtype": "float32", "shape": [128], "name": "batch_normalization_13/moving_variance"}, {"dtype": "float32", "shape": [256], "name": "batch_normalization_14/gamma"}, {"dtype": "float32", "shape": [256], "name": "batch_normalization_14/beta"}, {"dtype": "float32", "shape": [256], "name": "batch_normalization_14/moving_mean"}, {"dtype": "float32", "shape": [256], "name": "batch_normalization_14/moving_variance"}, {"dtype": "float32", "shape": [128], "name": "batch_normalization_15/gamma"}, {"dtype": "float32", "shape": [128], "name": "batch_normalization_15/beta"}, {"dtype": "float32", "shape": [128], "name": "batch_normalization_15/moving_mean"}, {"dtype": "float32", "shape": [128], "name": "batch_normalization_15/moving_variance"}, {"dtype": "float32", "shape": [256], "name": "batch_normalization_16/gamma"}, {"dtype": "float32", "shape": [256], "name": "batch_normalization_16/beta"}, {"dtype": "float32", "shape": [256], "name": "batch_normalization_16/moving_mean"}, {"dtype": "float32", "shape": [256], "name": "batch_normalization_16/moving_variance"}, {"dtype": "float32", "shape": [128], "name": "batch_normalization_17/gamma"}, {"dtype": "float32", "shape": [128], "name": "batch_normalization_17/beta"}, {"dtype": "float32", "shape": [128], "name": "batch_normalization_17/moving_mean"}, {"dtype": "float32", "shape": [128], "name": "batch_normalization_17/moving_variance"}, {"dtype": "float32", "shape": [256], "name": "batch_normalization_18/gamma"}, {"dtype": "float32", "shape": [256], "name": "batch_normalization_18/beta"}, {"dtype": "float32", "shape": [256], "name": "batch_normalization_18/moving_mean"}, {"dtype": "float32", "shape": [256], "name": "batch_normalization_18/moving_variance"}, {"dtype": "float32", "shape": [128], "name": "batch_normalization_19/gamma"}, {"dtype": "float32", "shape": [128], "name": "batch_normalization_19/beta"}, {"dtype": "float32", "shape": [128], "name": "batch_normalization_19/moving_mean"}, {"dtype": "float32", "shape": [128], "name": "batch_normalization_19/moving_variance"}, {"dtype": "float32", "shape": [64], "name": "batch_normalization_2/gamma"}, {"dtype": "float32", "shape": [64], "name": "batch_normalization_2/beta"}, {"dtype": "float32", "shape": [64], "name": "batch_normalization_2/moving_mean"}, {"dtype": "float32", "shape": [64], "name": "batch_normalization_2/moving_variance"}, {"dtype": "float32", "shape": [256], "name": "batch_normalization_20/gamma"}, {"dtype": "float32", "shape": [256], "name": "batch_normalization_20/beta"}, {"dtype": "float32", "shape": [256], "name": "batch_normalization_20/moving_mean"}, {"dtype": "float32", "shape": [256], "name": "batch_normalization_20/moving_variance"}, {"dtype": "float32", "shape": [128], "name": "batch_normalization_21/gamma"}, {"dtype": "float32", "shape": [128], "name": "batch_normalization_21/beta"}, {"dtype": "float32", "shape": [128], "name": "batch_normalization_21/moving_mean"}, {"dtype": "float32", "shape": [128], "name": "batch_normalization_21/moving_variance"}, {"dtype": "float32", "shape": [256], "name": "batch_normalization_22/gamma"}, {"dtype": "float32", "shape": [256], "name": "batch_normalization_22/beta"}, {"dtype": "float32", "shape": [256], "name": "batch_normalization_22/moving_mean"}, {"dtype": "float32", "shape": [256], "name": "batch_normalization_22/moving_variance"}, {"dtype": "float32", "shape": [128], "name": "batch_normalization_23/gamma"}, {"dtype": "float32", "shape": [128], "name": "batch_normalization_23/beta"}, {"dtype": "float32", "shape": [128], "name": "batch_normalization_23/moving_mean"}, {"dtype": "float32", "shape": [128], "name": "batch_normalization_23/moving_variance"}, {"dtype": "float32", "shape": [256], "name": "batch_normalization_24/gamma"}, {"dtype": "float32", "shape": [256], "name": "batch_normalization_24/beta"}, {"dtype": "float32", "shape": [256], "name": "batch_normalization_24/moving_mean"}, {"dtype": "float32", "shape": [256], "name": "batch_normalization_24/moving_variance"}, {"dtype": "float32", "shape": [128], "name": "batch_normalization_25/gamma"}, {"dtype": "float32", "shape": [128], "name": "batch_normalization_25/beta"}, {"dtype": "float32", "shape": [128], "name": "batch_normalization_25/moving_mean"}, {"dtype": "float32", "shape": [128], "name": "batch_normalization_25/moving_variance"}, {"dtype": "float32", "shape": [256], "name": "batch_normalization_26/gamma"}, {"dtype": "float32", "shape": [256], "name": "batch_normalization_26/beta"}, {"dtype": "float32", "shape": [256], "name": "batch_normalization_26/moving_mean"}, {"dtype": "float32", "shape": [256], "name": "batch_normalization_26/moving_variance"}, {"dtype": "float32", "shape": [512], "name": "batch_normalization_27/gamma"}, {"dtype": "float32", "shape": [512], "name": "batch_normalization_27/beta"}, {"dtype": "float32", "shape": [512], "name": "batch_normalization_27/moving_mean"}, {"dtype": "float32", "shape": [512], "name": "batch_normalization_27/moving_variance"}, {"dtype": "float32", "shape": [256], "name": "batch_normalization_28/gamma"}, {"dtype": "float32", "shape": [256], "name": "batch_normalization_28/beta"}, {"dtype": "float32", "shape": [256], "name": "batch_normalization_28/moving_mean"}, {"dtype": "float32", "shape": [256], "name": "batch_normalization_28/moving_variance"}, {"dtype": "float32", "shape": [512], "name": "batch_normalization_29/gamma"}, {"dtype": "float32", "shape": [512], "name": "batch_normalization_29/beta"}, {"dtype": "float32", "shape": [512], "name": "batch_normalization_29/moving_mean"}, {"dtype": "float32", "shape": [512], "name": "batch_normalization_29/moving_variance"}, {"dtype": "float32", "shape": [32], "name": "batch_normalization_3/gamma"}, {"dtype": "float32", "shape": [32], "name": "batch_normalization_3/beta"}, {"dtype": "float32", "shape": [32], "name": "batch_normalization_3/moving_mean"}, {"dtype": "float32", "shape": [32], "name": "batch_normalization_3/moving_variance"}, {"dtype": "float32", "shape": [256], "name": "batch_normalization_30/gamma"}, {"dtype": "float32", "shape": [256], "name": "batch_normalization_30/beta"}, {"dtype": "float32", "shape": [256], "name": "batch_normalization_30/moving_mean"}, {"dtype": "float32", "shape": [256], "name": "batch_normalization_30/moving_variance"}, {"dtype": "float32", "shape": [512], "name": "batch_normalization_31/gamma"}, {"dtype": "float32", "shape": [512], "name": "batch_normalization_31/beta"}, {"dtype": "float32", "shape": [512], "name": "batch_normalization_31/moving_mean"}, {"dtype": "float32", "shape": [512], "name": "batch_normalization_31/moving_variance"}, {"dtype": "float32", "shape": [256], "name": "batch_normalization_32/gamma"}, {"dtype": "float32", "shape": [256], "name": "batch_normalization_32/beta"}, {"dtype": "float32", "shape": [256], "name": "batch_normalization_32/moving_mean"}, {"dtype": "float32", "shape": [256], "name": "batch_normalization_32/moving_variance"}, {"dtype": "float32", "shape": [512], "name": "batch_normalization_33/gamma"}, {"dtype": "float32", "shape": [512], "name": "batch_normalization_33/beta"}, {"dtype": "float32", "shape": [512], "name": "batch_normalization_33/moving_mean"}, {"dtype": "float32", "shape": [512], "name": "batch_normalization_33/moving_variance"}, {"dtype": "float32", "shape": [256], "name": "batch_normalization_34/gamma"}, {"dtype": "float32", "shape": [256], "name": "batch_normalization_34/beta"}, {"dtype": "float32", "shape": [256], "name": "batch_normalization_34/moving_mean"}, {"dtype": "float32", "shape": [256], "name": "batch_normalization_34/moving_variance"}, {"dtype": "float32", "shape": [512], "name": "batch_normalization_35/gamma"}, {"dtype": "float32", "shape": [512], "name": "batch_normalization_35/beta"}, {"dtype": "float32", "shape": [512], "name": "batch_normalization_35/moving_mean"}, {"dtype": "float32", "shape": [512], "name": "batch_normalization_35/moving_variance"}, {"dtype": "float32", "shape": [256], "name": "batch_normalization_36/gamma"}, {"dtype": "float32", "shape": [256], "name": "batch_normalization_36/beta"}, {"dtype": "float32", "shape": [256], "name": "batch_normalization_36/moving_mean"}, {"dtype": "float32", "shape": [256], "name": "batch_normalization_36/moving_variance"}, {"dtype": "float32", "shape": [512], "name": "batch_normalization_37/gamma"}, {"dtype": "float32", "shape": [512], "name": "batch_normalization_37/beta"}, {"dtype": "float32", "shape": [512], "name": "batch_normalization_37/moving_mean"}, {"dtype": "float32", "shape": [512], "name": "batch_normalization_37/moving_variance"}, {"dtype": "float32", "shape": [256], "name": "batch_normalization_38/gamma"}, {"dtype": "float32", "shape": [256], "name": "batch_normalization_38/beta"}, {"dtype": "float32", "shape": [256], "name": "batch_normalization_38/moving_mean"}, {"dtype": "float32", "shape": [256], "name": "batch_normalization_38/moving_variance"}, {"dtype": "float32", "shape": [512], "name": "batch_normalization_39/gamma"}, {"dtype": "float32", "shape": [512], "name": "batch_normalization_39/beta"}, {"dtype": "float32", "shape": [512], "name": "batch_normalization_39/moving_mean"}, {"dtype": "float32", "shape": [512], "name": "batch_normalization_39/moving_variance"}, {"dtype": "float32", "shape": [64], "name": "batch_normalization_4/gamma"}, {"dtype": "float32", "shape": [64], "name": "batch_normalization_4/beta"}, {"dtype": "float32", "shape": [64], "name": "batch_normalization_4/moving_mean"}, {"dtype": "float32", "shape": [64], "name": "batch_normalization_4/moving_variance"}, {"dtype": "float32", "shape": [256], "name": "batch_normalization_40/gamma"}, {"dtype": "float32", "shape": [256], "name": "batch_normalization_40/beta"}, {"dtype": "float32", "shape": [256], "name": "batch_normalization_40/moving_mean"}, {"dtype": "float32", "shape": [256], "name": "batch_normalization_40/moving_variance"}, {"dtype": "float32", "shape": [512], "name": "batch_normalization_41/gamma"}, {"dtype": "float32", "shape": [512], "name": "batch_normalization_41/beta"}, {"dtype": "float32", "shape": [512], "name": "batch_normalization_41/moving_mean"}, {"dtype": "float32", "shape": [512], "name": "batch_normalization_41/moving_variance"}, {"dtype": "float32", "shape": [256], "name": "batch_normalization_42/gamma"}, {"dtype": "float32", "shape": [256], "name": "batch_normalization_42/beta"}, {"dtype": "float32", "shape": [256], "name": "batch_normalization_42/moving_mean"}, {"dtype": "float32", "shape": [256], "name": "batch_normalization_42/moving_variance"}, {"dtype": "float32", "shape": [512], "name": "batch_normalization_43/gamma"}, {"dtype": "float32", "shape": [512], "name": "batch_normalization_43/beta"}, {"dtype": "float32", "shape": [512], "name": "batch_normalization_43/moving_mean"}, {"dtype": "float32", "shape": [512], "name": "batch_normalization_43/moving_variance"}, {"dtype": "float32", "shape": [1024], "name": "batch_normalization_44/gamma"}, {"dtype": "float32", "shape": [1024], "name": "batch_normalization_44/beta"}, {"dtype": "float32", "shape": [1024], "name": "batch_normalization_44/moving_mean"}, {"dtype": "float32", "shape": [1024], "name": "batch_normalization_44/moving_variance"}, {"dtype": "float32", "shape": [512], "name": "batch_normalization_45/gamma"}, {"dtype": "float32", "shape": [512], "name": "batch_normalization_45/beta"}, {"dtype": "float32", "shape": [512], "name": "batch_normalization_45/moving_mean"}, {"dtype": "float32", "shape": [512], "name": "batch_normalization_45/moving_variance"}, {"dtype": "float32", "shape": [1024], "name": "batch_normalization_46/gamma"}, {"dtype": "float32", "shape": [1024], "name": "batch_normalization_46/beta"}, {"dtype": "float32", "shape": [1024], "name": "batch_normalization_46/moving_mean"}, {"dtype": "float32", "shape": [1024], "name": "batch_normalization_46/moving_variance"}, {"dtype": "float32", "shape": [512], "name": "batch_normalization_47/gamma"}, {"dtype": "float32", "shape": [512], "name": "batch_normalization_47/beta"}, {"dtype": "float32", "shape": [512], "name": "batch_normalization_47/moving_mean"}, {"dtype": "float32", "shape": [512], "name": "batch_normalization_47/moving_variance"}, {"dtype": "float32", "shape": [1024], "name": "batch_normalization_48/gamma"}, {"dtype": "float32", "shape": [1024], "name": "batch_normalization_48/beta"}, {"dtype": "float32", "shape": [1024], "name": "batch_normalization_48/moving_mean"}, {"dtype": "float32", "shape": [1024], "name": "batch_normalization_48/moving_variance"}, {"dtype": "float32", "shape": [512], "name": "batch_normalization_49/gamma"}, {"dtype": "float32", "shape": [512], "name": "batch_normalization_49/beta"}, {"dtype": "float32", "shape": [512], "name": "batch_normalization_49/moving_mean"}, {"dtype": "float32", "shape": [512], "name": "batch_normalization_49/moving_variance"}, {"dtype": "float32", "shape": [128], "name": "batch_normalization_5/gamma"}, {"dtype": "float32", "shape": [128], "name": "batch_normalization_5/beta"}, {"dtype": "float32", "shape": [128], "name": "batch_normalization_5/moving_mean"}, {"dtype": "float32", "shape": [128], "name": "batch_normalization_5/moving_variance"}, {"dtype": "float32", "shape": [1024], "name": "batch_normalization_50/gamma"}, {"dtype": "float32", "shape": [1024], "name": "batch_normalization_50/beta"}, {"dtype": "float32", "shape": [1024], "name": "batch_normalization_50/moving_mean"}, {"dtype": "float32", "shape": [1024], "name": "batch_normalization_50/moving_variance"}, {"dtype": "float32", "shape": [512], "name": "batch_normalization_51/gamma"}, {"dtype": "float32", "shape": [512], "name": "batch_normalization_51/beta"}, {"dtype": "float32", "shape": [512], "name": "batch_normalization_51/moving_mean"}, {"dtype": "float32", "shape": [512], "name": "batch_normalization_51/moving_variance"}, {"dtype": "float32", "shape": [1024], "name": "batch_normalization_52/gamma"}, {"dtype": "float32", "shape": [1024], "name": "batch_normalization_52/beta"}, {"dtype": "float32", "shape": [1024], "name": "batch_normalization_52/moving_mean"}, {"dtype": "float32", "shape": [1024], "name": "batch_normalization_52/moving_variance"}, {"dtype": "float32", "shape": [512], "name": "batch_normalization_53/gamma"}, {"dtype": "float32", "shape": [512], "name": "batch_normalization_53/beta"}, {"dtype": "float32", "shape": [512], "name": "batch_normalization_53/moving_mean"}, {"dtype": "float32", "shape": [512], "name": "batch_normalization_53/moving_variance"}, {"dtype": "float32", "shape": [1024], "name": "batch_normalization_54/gamma"}, {"dtype": "float32", "shape": [1024], "name": "batch_normalization_54/beta"}, {"dtype": "float32", "shape": [1024], "name": "batch_normalization_54/moving_mean"}, {"dtype": "float32", "shape": [1024], "name": "batch_normalization_54/moving_variance"}, {"dtype": "float32", "shape": [512], "name": "batch_normalization_55/gamma"}, {"dtype": "float32", "shape": [512], "name": "batch_normalization_55/beta"}, {"dtype": "float32", "shape": [512], "name": "batch_normalization_55/moving_mean"}, {"dtype": "float32", "shape": [512], "name": "batch_normalization_55/moving_variance"}, {"dtype": "float32", "shape": [1024], "name": "batch_normalization_56/gamma"}, {"dtype": "float32", "shape": [1024], "name": "batch_normalization_56/beta"}, {"dtype": "float32", "shape": [1024], "name": "batch_normalization_56/moving_mean"}, {"dtype": "float32", "shape": [1024], "name": "batch_normalization_56/moving_variance"}, {"dtype": "float32", "shape": [512], "name": "batch_normalization_57/gamma"}, {"dtype": "float32", "shape": [512], "name": "batch_normalization_57/beta"}, {"dtype": "float32", "shape": [512], "name": "batch_normalization_57/moving_mean"}, {"dtype": "float32", "shape": [512], "name": "batch_normalization_57/moving_variance"}, {"dtype": "float32", "shape": [1024], "name": "batch_normalization_58/gamma"}, {"dtype": "float32", "shape": [1024], "name": "batch_normalization_58/beta"}, {"dtype": "float32", "shape": [1024], "name": "batch_normalization_58/moving_mean"}, {"dtype": "float32", "shape": [1024], "name": "batch_normalization_58/moving_variance"}, {"dtype": "float32", "shape": [256], "name": "batch_normalization_59/gamma"}, {"dtype": "float32", "shape": [256], "name": "batch_normalization_59/beta"}, {"dtype": "float32", "shape": [256], "name": "batch_normalization_59/moving_mean"}, {"dtype": "float32", "shape": [256], "name": "batch_normalization_59/moving_variance"}, {"dtype": "float32", "shape": [64], "name": "batch_normalization_6/gamma"}, {"dtype": "float32", "shape": [64], "name": "batch_normalization_6/beta"}, {"dtype": "float32", "shape": [64], "name": "batch_normalization_6/moving_mean"}, {"dtype": "float32", "shape": [64], "name": "batch_normalization_6/moving_variance"}, {"dtype": "float32", "shape": [256], "name": "batch_normalization_60/gamma"}, {"dtype": "float32", "shape": [256], "name": "batch_normalization_60/beta"}, {"dtype": "float32", "shape": [256], "name": "batch_normalization_60/moving_mean"}, {"dtype": "float32", "shape": [256], "name": "batch_normalization_60/moving_variance"}, {"dtype": "float32", "shape": [512], "name": "batch_normalization_61/gamma"}, {"dtype": "float32", "shape": [512], "name": "batch_normalization_61/beta"}, {"dtype": "float32", "shape": [512], "name": "batch_normalization_61/moving_mean"}, {"dtype": "float32", "shape": [512], "name": "batch_normalization_61/moving_variance"}, {"dtype": "float32", "shape": [256], "name": "batch_normalization_62/gamma"}, {"dtype": "float32", "shape": [256], "name": "batch_normalization_62/beta"}, {"dtype": "float32", "shape": [256], "name": "batch_normalization_62/moving_mean"}, {"dtype": "float32", "shape": [256], "name": "batch_normalization_62/moving_variance"}, {"dtype": "float32", "shape": [512], "name": "batch_normalization_63/gamma"}, {"dtype": "float32", "shape": [512], "name": "batch_normalization_63/beta"}, {"dtype": "float32", "shape": [512], "name": "batch_normalization_63/moving_mean"}, {"dtype": "float32", "shape": [512], "name": "batch_normalization_63/moving_variance"}, {"dtype": "float32", "shape": [256], "name": "batch_normalization_64/gamma"}, {"dtype": "float32", "shape": [256], "name": "batch_normalization_64/beta"}, {"dtype": "float32", "shape": [256], "name": "batch_normalization_64/moving_mean"}, {"dtype": "float32", "shape": [256], "name": "batch_normalization_64/moving_variance"}, {"dtype": "float32", "shape": [512], "name": "batch_normalization_65/gamma"}, {"dtype": "float32", "shape": [512], "name": "batch_normalization_65/beta"}, {"dtype": "float32", "shape": [512], "name": "batch_normalization_65/moving_mean"}, {"dtype": "float32", "shape": [512], "name": "batch_normalization_65/moving_variance"}, {"dtype": "float32", "shape": [128], "name": "batch_normalization_66/gamma"}, {"dtype": "float32", "shape": [128], "name": "batch_normalization_66/beta"}, {"dtype": "float32", "shape": [128], "name": "batch_normalization_66/moving_mean"}, {"dtype": "float32", "shape": [128], "name": "batch_normalization_66/moving_variance"}, {"dtype": "float32", "shape": [128], "name": "batch_normalization_67/gamma"}, {"dtype": "float32", "shape": [128], "name": "batch_normalization_67/beta"}, {"dtype": "float32", "shape": [128], "name": "batch_normalization_67/moving_mean"}, {"dtype": "float32", "shape": [128], "name": "batch_normalization_67/moving_variance"}, {"dtype": "float32", "shape": [256], "name": "batch_normalization_68/gamma"}, {"dtype": "float32", "shape": [256], "name": "batch_normalization_68/beta"}, {"dtype": "float32", "shape": [256], "name": "batch_normalization_68/moving_mean"}, {"dtype": "float32", "shape": [256], "name": "batch_normalization_68/moving_variance"}, {"dtype": "float32", "shape": [128], "name": "batch_normalization_69/gamma"}, {"dtype": "float32", "shape": [128], "name": "batch_normalization_69/beta"}, {"dtype": "float32", "shape": [128], "name": "batch_normalization_69/moving_mean"}, {"dtype": "float32", "shape": [128], "name": "batch_normalization_69/moving_variance"}, {"dtype": "float32", "shape": [128], "name": "batch_normalization_7/gamma"}, {"dtype": "float32", "shape": [128], "name": "batch_normalization_7/beta"}, {"dtype": "float32", "shape": [128], "name": "batch_normalization_7/moving_mean"}, {"dtype": "float32", "shape": [128], "name": "batch_normalization_7/moving_variance"}, {"dtype": "float32", "shape": [256], "name": "batch_normalization_70/gamma"}, {"dtype": "float32", "shape": [256], "name": "batch_normalization_70/beta"}, {"dtype": "float32", "shape": [256], "name": "batch_normalization_70/moving_mean"}, {"dtype": "float32", "shape": [256], "name": "batch_normalization_70/moving_variance"}, {"dtype": "float32", "shape": [128], "name": "batch_normalization_71/gamma"}, {"dtype": "float32", "shape": [128], "name": "batch_normalization_71/beta"}, {"dtype": "float32", "shape": [128], "name": "batch_normalization_71/moving_mean"}, {"dtype": "float32", "shape": [128], "name": "batch_normalization_71/moving_variance"}, {"dtype": "float32", "shape": [256], "name": "batch_normalization_72/gamma"}, {"dtype": "float32", "shape": [256], "name": "batch_normalization_72/beta"}, {"dtype": "float32", "shape": [256], "name": "batch_normalization_72/moving_mean"}, {"dtype": "float32", "shape": [256], "name": "batch_normalization_72/moving_variance"}, {"dtype": "float32", "shape": [64], "name": "batch_normalization_8/gamma"}, {"dtype": "float32", "shape": [64], "name": "batch_normalization_8/beta"}, {"dtype": "float32", "shape": [64], "name": "batch_normalization_8/moving_mean"}, {"dtype": "float32", "shape": [64], "name": "batch_normalization_8/moving_variance"}, {"dtype": "float32", "shape": [128], "name": "batch_normalization_9/gamma"}, {"dtype": "float32", "shape": [128], "name": "batch_normalization_9/beta"}, {"dtype": "float32", "shape": [128], "name": "batch_normalization_9/moving_mean"}, {"dtype": "float32", "shape": [128], "name": "batch_normalization_9/moving_variance"}, {"dtype": "float32", "shape": [3, 3, 3, 32], "name": "conv2d_1/kernel"}, {"dtype": "float32", "shape": [3, 3, 128, 256], "name": "conv2d_10/kernel"}, {"dtype": "float32", "shape": [1, 1, 256, 128], "name": "conv2d_11/kernel"}, {"dtype": "float32", "shape": [3, 3, 128, 256], "name": "conv2d_12/kernel"}, {"dtype": "float32", "shape": [1, 1, 256, 128], "name": "conv2d_13/kernel"}, {"dtype": "float32", "shape": [3, 3, 128, 256], "name": "conv2d_14/kernel"}, {"dtype": "float32", "shape": [1, 1, 256, 128], "name": "conv2d_15/kernel"}, {"dtype": "float32", "shape": [3, 3, 128, 256], "name": "conv2d_16/kernel"}, {"dtype": "float32", "shape": [1, 1, 256, 128], "name": "conv2d_17/kernel"}, {"dtype": "float32", "shape": [3, 3, 128, 256], "name": "conv2d_18/kernel"}, {"dtype": "float32", "shape": [1, 1, 256, 128], "name": "conv2d_19/kernel"}, {"dtype": "float32", "shape": [3, 3, 32, 64], "name": "conv2d_2/kernel"}, {"dtype": "float32", "shape": [3, 3, 128, 256], "name": "conv2d_20/kernel"}, {"dtype": "float32", "shape": [1, 1, 256, 128], "name": "conv2d_21/kernel"}, {"dtype": "float32", "shape": [3, 3, 128, 256], "name": "conv2d_22/kernel"}, {"dtype": "float32", "shape": [1, 1, 256, 128], "name": "conv2d_23/kernel"}, {"dtype": "float32", "shape": [3, 3, 128, 256], "name": "conv2d_24/kernel"}, {"dtype": "float32", "shape": [1, 1, 256, 128], "name": "conv2d_25/kernel"}, {"dtype": "float32", "shape": [3, 3, 128, 256], "name": "conv2d_26/kernel"}, {"dtype": "float32", "shape": [3, 3, 256, 512], "name": "conv2d_27/kernel"}, {"dtype": "float32", "shape": [1, 1, 512, 256], "name": "conv2d_28/kernel"}, {"dtype": "float32", "shape": [3, 3, 256, 512], "name": "conv2d_29/kernel"}, {"dtype": "float32", "shape": [1, 1, 64, 32], "name": "conv2d_3/kernel"}, {"dtype": "float32", "shape": [1, 1, 512, 256], "name": "conv2d_30/kernel"}, {"dtype": "float32", "shape": [3, 3, 256, 512], "name": "conv2d_31/kernel"}, {"dtype": "float32", "shape": [1, 1, 512, 256], "name": "conv2d_32/kernel"}, {"dtype": "float32", "shape": [3, 3, 256, 512], "name": "conv2d_33/kernel"}, {"dtype": "float32", "shape": [1, 1, 512, 256], "name": "conv2d_34/kernel"}, {"dtype": "float32", "shape": [3, 3, 256, 512], "name": "conv2d_35/kernel"}, {"dtype": "float32", "shape": [1, 1, 512, 256], "name": "conv2d_36/kernel"}, {"dtype": "float32", "shape": [3, 3, 256, 512], "name": "conv2d_37/kernel"}, {"dtype": "float32", "shape": [1, 1, 512, 256], "name": "conv2d_38/kernel"}, {"dtype": "float32", "shape": [3, 3, 256, 512], "name": "conv2d_39/kernel"}, {"dtype": "float32", "shape": [3, 3, 32, 64], "name": "conv2d_4/kernel"}, {"dtype": "float32", "shape": [1, 1, 512, 256], "name": "conv2d_40/kernel"}, {"dtype": "float32", "shape": [3, 3, 256, 512], "name": "conv2d_41/kernel"}, {"dtype": "float32", "shape": [1, 1, 512, 256], "name": "conv2d_42/kernel"}, {"dtype": "float32", "shape": [3, 3, 256, 512], "name": "conv2d_43/kernel"}, {"dtype": "float32", "shape": [3, 3, 512, 1024], "name": "conv2d_44/kernel"}, {"dtype": "float32", "shape": [1, 1, 1024, 512], "name": "conv2d_45/kernel"}, {"dtype": "float32", "shape": [3, 3, 512, 1024], "name": "conv2d_46/kernel"}, {"dtype": "float32", "shape": [1, 1, 1024, 512], "name": "conv2d_47/kernel"}, {"dtype": "float32", "shape": [3, 3, 512, 1024], "name": "conv2d_48/kernel"}, {"dtype": "float32", "shape": [1, 1, 1024, 512], "name": "conv2d_49/kernel"}, {"dtype": "float32", "shape": [3, 3, 64, 128], "name": "conv2d_5/kernel"}, {"dtype": "float32", "shape": [3, 3, 512, 1024], "name": "conv2d_50/kernel"}, {"dtype": "float32", "shape": [1, 1, 1024, 512], "name": "conv2d_51/kernel"}, {"dtype": "float32", "shape": [3, 3, 512, 1024], "name": "conv2d_52/kernel"}, {"dtype": "float32", "shape": [1, 1, 1024, 512], "name": "conv2d_53/kernel"}, {"dtype": "float32", "shape": [3, 3, 512, 1024], "name": "conv2d_54/kernel"}, {"dtype": "float32", "shape": [1, 1, 1024, 512], "name": "conv2d_55/kernel"}, {"dtype": "float32", "shape": [3, 3, 512, 1024], "name": "conv2d_56/kernel"}, {"dtype": "float32", "shape": [1, 1, 1024, 512], "name": "conv2d_57/kernel"}, {"dtype": "float32", "shape": [3, 3, 512, 1024], "name": "conv2d_58/kernel"}, {"dtype": "float32", "shape": [1, 1, 1024, 255], "name": "conv2d_59/kernel"}, {"dtype": "float32", "shape": [255], "name": "conv2d_59/bias"}, {"dtype": "float32", "shape": [1, 1, 128, 64], "name": "conv2d_6/kernel"}, {"dtype": "float32", "shape": [1, 1, 512, 256], "name": "conv2d_60/kernel"}, {"dtype": "float32", "shape": [1, 1, 768, 256], "name": "conv2d_61/kernel"}, {"dtype": "float32", "shape": [3, 3, 256, 512], "name": "conv2d_62/kernel"}, {"dtype": "float32", "shape": [1, 1, 512, 256], "name": "conv2d_63/kernel"}, {"dtype": "float32", "shape": [3, 3, 256, 512], "name": "conv2d_64/kernel"}, {"dtype": "float32", "shape": [1, 1, 512, 256], "name": "conv2d_65/kernel"}, {"dtype": "float32", "shape": [3, 3, 256, 512], "name": "conv2d_66/kernel"}, {"dtype": "float32", "shape": [1, 1, 512, 255], "name": "conv2d_67/kernel"}, {"dtype": "float32", "shape": [255], "name": "conv2d_67/bias"}, {"dtype": "float32", "shape": [1, 1, 256, 128], "name": "conv2d_68/kernel"}, {"dtype": "float32", "shape": [1, 1, 384, 128], "name": "conv2d_69/kernel"}, {"dtype": "float32", "shape": [3, 3, 64, 128], "name": "conv2d_7/kernel"}, {"dtype": "float32", "shape": [3, 3, 128, 256], "name": "conv2d_70/kernel"}, {"dtype": "float32", "shape": [1, 1, 256, 128], "name": "conv2d_71/kernel"}, {"dtype": "float32", "shape": [3, 3, 128, 256], "name": "conv2d_72/kernel"}, {"dtype": "float32", "shape": [1, 1, 256, 128], "name": "conv2d_73/kernel"}, {"dtype": "float32", "shape": [3, 3, 128, 256], "name": "conv2d_74/kernel"}, {"dtype": "float32", "shape": [1, 1, 256, 255], "name": "conv2d_75/kernel"}, {"dtype": "float32", "shape": [255], "name": "conv2d_75/bias"}, {"dtype": "float32", "shape": [1, 1, 128, 64], "name": "conv2d_8/kernel"}, {"dtype": "float32", "shape": [3, 3, 64, 128], "name": "conv2d_9/kernel"}]}]}