{"modelTopology": {"keras_version": "2.0.8", "model_config": {"class_name": "Model", "config": {"layers": [{"class_name": "InputLayer", "config": {"dtype": "float32", "batch_input_shape": [null, null, null, 3], "name": "input_1", "sparse": false}, "inbound_nodes": [], "name": "input_1"}, {"class_name": "Conv2D", "config": {"kernel_initializer": {"class_name": "VarianceScaling", "config": {"distribution": "uniform", "scale": 1.0, "seed": null, "mode": "fan_avg"}}, "name": "conv2d_1", "kernel_constraint": null, "bias_regularizer": null, "bias_constraint": null, "activity_regularizer": null, "trainable": true, "data_format": "channels_last", "padding": "same", "strides": [1, 1], "dilation_rate": [1, 1], "kernel_regularizer": {"class_name": "L1L2", "config": {"l2": 0.0005000000237487257, "l1": 0.0}}, "filters": 16, "bias_initializer": {"class_name": "Zeros", "config": {}}, "use_bias": false, "activation": "linear", "kernel_size": [3, 3]}, "inbound_nodes": [[["input_1", 0, 0, {}]]], "name": "conv2d_1"}, {"class_name": "BatchNormalization", "config": {"gamma_initializer": {"class_name": "Ones", "config": {}}, "scale": true, "moving_mean_initializer": {"class_name": "Zeros", "config": {}}, "center": true, "name": "batch_normalization_1", "epsilon": 0.001, "trainable": true, "moving_variance_initializer": {"class_name": "Ones", "config": {}}, "beta_initializer": {"class_name": "Zeros", "config": {}}, "gamma_constraint": null, "gamma_regularizer": null, "beta_constraint": null, "beta_regularizer": null, "momentum": 0.99, "axis": -1}, "inbound_nodes": [[["conv2d_1", 0, 0, {}]]], "name": "batch_normalization_1"}, {"class_name": "LeakyReLU", "config": {"alpha": 0.10000000149011612, "trainable": true, "name": "leaky_re_lu_1"}, "inbound_nodes": [[["batch_normalization_1", 0, 0, {}]]], "name": "leaky_re_lu_1"}, {"class_name": "MaxPooling2D", "config": {"name": "max_pooling2d_1", "trainable": true, "data_format": "channels_last", "pool_size": [2, 2], "padding": "same", "strides": [2, 2]}, "inbound_nodes": [[["leaky_re_lu_1", 0, 0, {}]]], "name": "max_pooling2d_1"}, {"class_name": "Conv2D", "config": {"kernel_initializer": {"class_name": "VarianceScaling", "config": {"distribution": "uniform", "scale": 1.0, "seed": null, "mode": "fan_avg"}}, "name": "conv2d_2", "kernel_constraint": null, "bias_regularizer": null, "bias_constraint": null, "activity_regularizer": null, "trainable": true, "data_format": "channels_last", "padding": "same", "strides": [1, 1], "dilation_rate": [1, 1], "kernel_regularizer": {"class_name": "L1L2", "config": {"l2": 0.0005000000237487257, "l1": 0.0}}, "filters": 32, "bias_initializer": {"class_name": "Zeros", "config": {}}, "use_bias": false, "activation": "linear", "kernel_size": [3, 3]}, "inbound_nodes": [[["max_pooling2d_1", 0, 0, {}]]], "name": "conv2d_2"}, {"class_name": "BatchNormalization", "config": {"gamma_initializer": {"class_name": "Ones", "config": {}}, "scale": true, "moving_mean_initializer": {"class_name": "Zeros", "config": {}}, "center": true, "name": "batch_normalization_2", "epsilon": 0.001, "trainable": true, "moving_variance_initializer": {"class_name": "Ones", "config": {}}, "beta_initializer": {"class_name": "Zeros", "config": {}}, "gamma_constraint": null, "gamma_regularizer": null, "beta_constraint": null, "beta_regularizer": null, "momentum": 0.99, "axis": -1}, "inbound_nodes": [[["conv2d_2", 0, 0, {}]]], "name": "batch_normalization_2"}, {"class_name": "LeakyReLU", "config": {"alpha": 0.10000000149011612, "trainable": true, "name": "leaky_re_lu_2"}, "inbound_nodes": [[["batch_normalization_2", 0, 0, {}]]], "name": "leaky_re_lu_2"}, {"class_name": "MaxPooling2D", "config": {"name": "max_pooling2d_2", "trainable": true, "data_format": "channels_last", "pool_size": [2, 2], "padding": "same", "strides": [2, 2]}, "inbound_nodes": [[["leaky_re_lu_2", 0, 0, {}]]], "name": "max_pooling2d_2"}, {"class_name": "Conv2D", "config": {"kernel_initializer": {"class_name": "VarianceScaling", "config": {"distribution": "uniform", "scale": 1.0, "seed": null, "mode": "fan_avg"}}, "name": "conv2d_3", "kernel_constraint": null, "bias_regularizer": null, "bias_constraint": null, "activity_regularizer": null, "trainable": true, "data_format": "channels_last", "padding": "same", "strides": [1, 1], "dilation_rate": [1, 1], "kernel_regularizer": {"class_name": "L1L2", "config": {"l2": 0.0005000000237487257, "l1": 0.0}}, "filters": 64, "bias_initializer": {"class_name": "Zeros", "config": {}}, "use_bias": false, "activation": "linear", "kernel_size": [3, 3]}, "inbound_nodes": [[["max_pooling2d_2", 0, 0, {}]]], "name": "conv2d_3"}, {"class_name": "BatchNormalization", "config": {"gamma_initializer": {"class_name": "Ones", "config": {}}, "scale": true, "moving_mean_initializer": {"class_name": "Zeros", "config": {}}, "center": true, "name": "batch_normalization_3", "epsilon": 0.001, "trainable": true, "moving_variance_initializer": {"class_name": "Ones", "config": {}}, "beta_initializer": {"class_name": "Zeros", "config": {}}, "gamma_constraint": null, "gamma_regularizer": null, "beta_constraint": null, "beta_regularizer": null, "momentum": 0.99, "axis": -1}, "inbound_nodes": [[["conv2d_3", 0, 0, {}]]], "name": "batch_normalization_3"}, {"class_name": "LeakyReLU", "config": {"alpha": 0.10000000149011612, "trainable": true, "name": "leaky_re_lu_3"}, "inbound_nodes": [[["batch_normalization_3", 0, 0, {}]]], "name": "leaky_re_lu_3"}, {"class_name": "MaxPooling2D", "config": {"name": "max_pooling2d_3", "trainable": true, "data_format": "channels_last", "pool_size": [2, 2], "padding": "same", "strides": [2, 2]}, "inbound_nodes": [[["leaky_re_lu_3", 0, 0, {}]]], "name": "max_pooling2d_3"}, {"class_name": "Conv2D", "config": {"kernel_initializer": {"class_name": "VarianceScaling", "config": {"distribution": "uniform", "scale": 1.0, "seed": null, "mode": "fan_avg"}}, "name": "conv2d_4", "kernel_constraint": null, "bias_regularizer": null, "bias_constraint": null, "activity_regularizer": null, "trainable": true, "data_format": "channels_last", "padding": "same", "strides": [1, 1], "dilation_rate": [1, 1], "kernel_regularizer": {"class_name": "L1L2", "config": {"l2": 0.0005000000237487257, "l1": 0.0}}, "filters": 128, "bias_initializer": {"class_name": "Zeros", "config": {}}, "use_bias": false, "activation": "linear", "kernel_size": [3, 3]}, "inbound_nodes": [[["max_pooling2d_3", 0, 0, {}]]], "name": "conv2d_4"}, {"class_name": "BatchNormalization", "config": {"gamma_initializer": {"class_name": "Ones", "config": {}}, "scale": true, "moving_mean_initializer": {"class_name": "Zeros", "config": {}}, "center": true, "name": "batch_normalization_4", "epsilon": 0.001, "trainable": true, "moving_variance_initializer": {"class_name": "Ones", "config": {}}, "beta_initializer": {"class_name": "Zeros", "config": {}}, "gamma_constraint": null, "gamma_regularizer": null, "beta_constraint": null, "beta_regularizer": null, "momentum": 0.99, "axis": -1}, "inbound_nodes": [[["conv2d_4", 0, 0, {}]]], "name": "batch_normalization_4"}, {"class_name": "LeakyReLU", "config": {"alpha": 0.10000000149011612, "trainable": true, "name": "leaky_re_lu_4"}, "inbound_nodes": [[["batch_normalization_4", 0, 0, {}]]], "name": "leaky_re_lu_4"}, {"class_name": "MaxPooling2D", "config": {"name": "max_pooling2d_4", "trainable": true, "data_format": "channels_last", "pool_size": [2, 2], "padding": "same", "strides": [2, 2]}, "inbound_nodes": [[["leaky_re_lu_4", 0, 0, {}]]], "name": "max_pooling2d_4"}, {"class_name": "Conv2D", "config": {"kernel_initializer": {"class_name": "VarianceScaling", "config": {"distribution": "uniform", "scale": 1.0, "seed": null, "mode": "fan_avg"}}, "name": "conv2d_5", "kernel_constraint": null, "bias_regularizer": null, "bias_constraint": null, "activity_regularizer": null, "trainable": true, "data_format": "channels_last", "padding": "same", "strides": [1, 1], "dilation_rate": [1, 1], "kernel_regularizer": {"class_name": "L1L2", "config": {"l2": 0.0005000000237487257, "l1": 0.0}}, "filters": 256, "bias_initializer": {"class_name": "Zeros", "config": {}}, "use_bias": false, "activation": "linear", "kernel_size": [3, 3]}, "inbound_nodes": [[["max_pooling2d_4", 0, 0, {}]]], "name": "conv2d_5"}, {"class_name": "BatchNormalization", "config": {"gamma_initializer": {"class_name": "Ones", "config": {}}, "scale": true, "moving_mean_initializer": {"class_name": "Zeros", "config": {}}, "center": true, "name": "batch_normalization_5", "epsilon": 0.001, "trainable": true, "moving_variance_initializer": {"class_name": "Ones", "config": {}}, "beta_initializer": {"class_name": "Zeros", "config": {}}, "gamma_constraint": null, "gamma_regularizer": null, "beta_constraint": null, "beta_regularizer": null, "momentum": 0.99, "axis": -1}, "inbound_nodes": [[["conv2d_5", 0, 0, {}]]], "name": "batch_normalization_5"}, {"class_name": "LeakyReLU", "config": {"alpha": 0.10000000149011612, "trainable": true, "name": "leaky_re_lu_5"}, "inbound_nodes": [[["batch_normalization_5", 0, 0, {}]]], "name": "leaky_re_lu_5"}, {"class_name": "MaxPooling2D", "config": {"name": "max_pooling2d_5", "trainable": true, "data_format": "channels_last", "pool_size": [2, 2], "padding": "same", "strides": [2, 2]}, "inbound_nodes": [[["leaky_re_lu_5", 0, 0, {}]]], "name": "max_pooling2d_5"}, {"class_name": "Conv2D", "config": {"kernel_initializer": {"class_name": "VarianceScaling", "config": {"distribution": "uniform", "scale": 1.0, "seed": null, "mode": "fan_avg"}}, "name": "conv2d_6", "kernel_constraint": null, "bias_regularizer": null, "bias_constraint": null, "activity_regularizer": null, "trainable": true, "data_format": "channels_last", "padding": "same", "strides": [1, 1], "dilation_rate": [1, 1], "kernel_regularizer": {"class_name": "L1L2", "config": {"l2": 0.0005000000237487257, "l1": 0.0}}, "filters": 512, "bias_initializer": {"class_name": "Zeros", "config": {}}, "use_bias": false, "activation": "linear", "kernel_size": [3, 3]}, "inbound_nodes": [[["max_pooling2d_5", 0, 0, {}]]], "name": "conv2d_6"}, {"class_name": "BatchNormalization", "config": {"gamma_initializer": {"class_name": "Ones", "config": {}}, "scale": true, "moving_mean_initializer": {"class_name": "Zeros", "config": {}}, "center": true, "name": "batch_normalization_6", "epsilon": 0.001, "trainable": true, "moving_variance_initializer": {"class_name": "Ones", "config": {}}, "beta_initializer": {"class_name": "Zeros", "config": {}}, "gamma_constraint": null, "gamma_regularizer": null, "beta_constraint": null, "beta_regularizer": null, "momentum": 0.99, "axis": -1}, "inbound_nodes": [[["conv2d_6", 0, 0, {}]]], "name": "batch_normalization_6"}, {"class_name": "LeakyReLU", "config": {"alpha": 0.10000000149011612, "trainable": true, "name": "leaky_re_lu_6"}, "inbound_nodes": [[["batch_normalization_6", 0, 0, {}]]], "name": "leaky_re_lu_6"}, {"class_name": "MaxPooling2D", "config": {"name": "max_pooling2d_6", "trainable": true, "data_format": "channels_last", "pool_size": [2, 2], "padding": "same", "strides": [1, 1]}, "inbound_nodes": [[["leaky_re_lu_6", 0, 0, {}]]], "name": "max_pooling2d_6"}, {"class_name": "Conv2D", "config": {"kernel_initializer": {"class_name": "VarianceScaling", "config": {"distribution": "uniform", "scale": 1.0, "seed": null, "mode": "fan_avg"}}, "name": "conv2d_7", "kernel_constraint": null, "bias_regularizer": null, "bias_constraint": null, "activity_regularizer": null, "trainable": true, "data_format": "channels_last", "padding": "same", "strides": [1, 1], "dilation_rate": [1, 1], "kernel_regularizer": {"class_name": "L1L2", "config": {"l2": 0.0005000000237487257, "l1": 0.0}}, "filters": 1024, "bias_initializer": {"class_name": "Zeros", "config": {}}, "use_bias": false, "activation": "linear", "kernel_size": [3, 3]}, "inbound_nodes": [[["max_pooling2d_6", 0, 0, {}]]], "name": "conv2d_7"}, {"class_name": "BatchNormalization", "config": {"gamma_initializer": {"class_name": "Ones", "config": {}}, "scale": true, "moving_mean_initializer": {"class_name": "Zeros", "config": {}}, "center": true, "name": "batch_normalization_7", "epsilon": 0.001, "trainable": true, "moving_variance_initializer": {"class_name": "Ones", "config": {}}, "beta_initializer": {"class_name": "Zeros", "config": {}}, "gamma_constraint": null, "gamma_regularizer": null, "beta_constraint": null, "beta_regularizer": null, "momentum": 0.99, "axis": -1}, "inbound_nodes": [[["conv2d_7", 0, 0, {}]]], "name": "batch_normalization_7"}, {"class_name": "LeakyReLU", "config": {"alpha": 0.10000000149011612, "trainable": true, "name": "leaky_re_lu_7"}, "inbound_nodes": [[["batch_normalization_7", 0, 0, {}]]], "name": "leaky_re_lu_7"}, {"class_name": "Conv2D", "config": {"kernel_initializer": {"class_name": "VarianceScaling", "config": {"distribution": "uniform", "scale": 1.0, "seed": null, "mode": "fan_avg"}}, "name": "conv2d_8", "kernel_constraint": null, "bias_regularizer": null, "bias_constraint": null, "activity_regularizer": null, "trainable": true, "data_format": "channels_last", "padding": "same", "strides": [1, 1], "dilation_rate": [1, 1], "kernel_regularizer": {"class_name": "L1L2", "config": {"l2": 0.0005000000237487257, "l1": 0.0}}, "filters": 256, "bias_initializer": {"class_name": "Zeros", "config": {}}, "use_bias": false, "activation": "linear", "kernel_size": [1, 1]}, "inbound_nodes": [[["leaky_re_lu_7", 0, 0, {}]]], "name": "conv2d_8"}, {"class_name": "BatchNormalization", "config": {"gamma_initializer": {"class_name": "Ones", "config": {}}, "scale": true, "moving_mean_initializer": {"class_name": "Zeros", "config": {}}, "center": true, "name": "batch_normalization_8", "epsilon": 0.001, "trainable": true, "moving_variance_initializer": {"class_name": "Ones", "config": {}}, "beta_initializer": {"class_name": "Zeros", "config": {}}, "gamma_constraint": null, "gamma_regularizer": null, "beta_constraint": null, "beta_regularizer": null, "momentum": 0.99, "axis": -1}, "inbound_nodes": [[["conv2d_8", 0, 0, {}]]], "name": "batch_normalization_8"}, {"class_name": "LeakyReLU", "config": {"alpha": 0.10000000149011612, "trainable": true, "name": "leaky_re_lu_8"}, "inbound_nodes": [[["batch_normalization_8", 0, 0, {}]]], "name": "leaky_re_lu_8"}, {"class_name": "Conv2D", "config": {"kernel_initializer": {"class_name": "VarianceScaling", "config": {"distribution": "uniform", "scale": 1.0, "seed": null, "mode": "fan_avg"}}, "name": "conv2d_11", "kernel_constraint": null, "bias_regularizer": null, "bias_constraint": null, "activity_regularizer": null, "trainable": true, "data_format": "channels_last", "padding": "same", "strides": [1, 1], "dilation_rate": [1, 1], "kernel_regularizer": {"class_name": "L1L2", "config": {"l2": 0.0005000000237487257, "l1": 0.0}}, "filters": 128, "bias_initializer": {"class_name": "Zeros", "config": {}}, "use_bias": false, "activation": "linear", "kernel_size": [1, 1]}, "inbound_nodes": [[["leaky_re_lu_8", 0, 0, {}]]], "name": "conv2d_11"}, {"class_name": "BatchNormalization", "config": {"gamma_initializer": {"class_name": "Ones", "config": {}}, "scale": true, "moving_mean_initializer": {"class_name": "Zeros", "config": {}}, "center": true, "name": "batch_normalization_10", "epsilon": 0.001, "trainable": true, "moving_variance_initializer": {"class_name": "Ones", "config": {}}, "beta_initializer": {"class_name": "Zeros", "config": {}}, "gamma_constraint": null, "gamma_regularizer": null, "beta_constraint": null, "beta_regularizer": null, "momentum": 0.99, "axis": -1}, "inbound_nodes": [[["conv2d_11", 0, 0, {}]]], "name": "batch_normalization_10"}, {"class_name": "LeakyReLU", "config": {"alpha": 0.10000000149011612, "trainable": true, "name": "leaky_re_lu_10"}, "inbound_nodes": [[["batch_normalization_10", 0, 0, {}]]], "name": "leaky_re_lu_10"}, {"class_name": "UpSampling2D", "config": {"trainable": true, "data_format": "channels_last", "name": "up_sampling2d_1", "size": [2, 2]}, "inbound_nodes": [[["leaky_re_lu_10", 0, 0, {}]]], "name": "up_sampling2d_1"}, {"class_name": "Concatenate", "config": {"trainable": true, "name": "concatenate_1", "axis": -1}, "inbound_nodes": [[["up_sampling2d_1", 0, 0, {}], ["leaky_re_lu_5", 0, 0, {}]]], "name": "concatenate_1"}, {"class_name": "Conv2D", "config": {"kernel_initializer": {"class_name": "VarianceScaling", "config": {"distribution": "uniform", "scale": 1.0, "seed": null, "mode": "fan_avg"}}, "name": "conv2d_9", "kernel_constraint": null, "bias_regularizer": null, "bias_constraint": null, "activity_regularizer": null, "trainable": true, "data_format": "channels_last", "padding": "same", "strides": [1, 1], "dilation_rate": [1, 1], "kernel_regularizer": {"class_name": "L1L2", "config": {"l2": 0.0005000000237487257, "l1": 0.0}}, "filters": 512, "bias_initializer": {"class_name": "Zeros", "config": {}}, "use_bias": false, "activation": "linear", "kernel_size": [3, 3]}, "inbound_nodes": [[["leaky_re_lu_8", 0, 0, {}]]], "name": "conv2d_9"}, {"class_name": "Conv2D", "config": {"kernel_initializer": {"class_name": "VarianceScaling", "config": {"distribution": "uniform", "scale": 1.0, "seed": null, "mode": "fan_avg"}}, "name": "conv2d_12", "kernel_constraint": null, "bias_regularizer": null, "bias_constraint": null, "activity_regularizer": null, "trainable": true, "data_format": "channels_last", "padding": "same", "strides": [1, 1], "dilation_rate": [1, 1], "kernel_regularizer": {"class_name": "L1L2", "config": {"l2": 0.0005000000237487257, "l1": 0.0}}, "filters": 256, "bias_initializer": {"class_name": "Zeros", "config": {}}, "use_bias": false, "activation": "linear", "kernel_size": [3, 3]}, "inbound_nodes": [[["concatenate_1", 0, 0, {}]]], "name": "conv2d_12"}, {"class_name": "BatchNormalization", "config": {"gamma_initializer": {"class_name": "Ones", "config": {}}, "scale": true, "moving_mean_initializer": {"class_name": "Zeros", "config": {}}, "center": true, "name": "batch_normalization_9", "epsilon": 0.001, "trainable": true, "moving_variance_initializer": {"class_name": "Ones", "config": {}}, "beta_initializer": {"class_name": "Zeros", "config": {}}, "gamma_constraint": null, "gamma_regularizer": null, "beta_constraint": null, "beta_regularizer": null, "momentum": 0.99, "axis": -1}, "inbound_nodes": [[["conv2d_9", 0, 0, {}]]], "name": "batch_normalization_9"}, {"class_name": "BatchNormalization", "config": {"gamma_initializer": {"class_name": "Ones", "config": {}}, "scale": true, "moving_mean_initializer": {"class_name": "Zeros", "config": {}}, "center": true, "name": "batch_normalization_11", "epsilon": 0.001, "trainable": true, "moving_variance_initializer": {"class_name": "Ones", "config": {}}, "beta_initializer": {"class_name": "Zeros", "config": {}}, "gamma_constraint": null, "gamma_regularizer": null, "beta_constraint": null, "beta_regularizer": null, "momentum": 0.99, "axis": -1}, "inbound_nodes": [[["conv2d_12", 0, 0, {}]]], "name": "batch_normalization_11"}, {"class_name": "LeakyReLU", "config": {"alpha": 0.10000000149011612, "trainable": true, "name": "leaky_re_lu_9"}, "inbound_nodes": [[["batch_normalization_9", 0, 0, {}]]], "name": "leaky_re_lu_9"}, {"class_name": "LeakyReLU", "config": {"alpha": 0.10000000149011612, "trainable": true, "name": "leaky_re_lu_11"}, "inbound_nodes": [[["batch_normalization_11", 0, 0, {}]]], "name": "leaky_re_lu_11"}, {"class_name": "Conv2D", "config": {"kernel_initializer": {"class_name": "VarianceScaling", "config": {"distribution": "uniform", "scale": 1.0, "seed": null, "mode": "fan_avg"}}, "name": "conv2d_10", "kernel_constraint": null, "bias_regularizer": null, "bias_constraint": null, "activity_regularizer": null, "trainable": true, "data_format": "channels_last", "padding": "same", "strides": [1, 1], "dilation_rate": [1, 1], "kernel_regularizer": {"class_name": "L1L2", "config": {"l2": 0.0005000000237487257, "l1": 0.0}}, "filters": 255, "bias_initializer": {"class_name": "Zeros", "config": {}}, "use_bias": true, "activation": "linear", "kernel_size": [1, 1]}, "inbound_nodes": [[["leaky_re_lu_9", 0, 0, {}]]], "name": "conv2d_10"}, {"class_name": "Conv2D", "config": {"kernel_initializer": {"class_name": "VarianceScaling", "config": {"distribution": "uniform", "scale": 1.0, "seed": null, "mode": "fan_avg"}}, "name": "conv2d_13", "kernel_constraint": null, "bias_regularizer": null, "bias_constraint": null, "activity_regularizer": null, "trainable": true, "data_format": "channels_last", "padding": "same", "strides": [1, 1], "dilation_rate": [1, 1], "kernel_regularizer": {"class_name": "L1L2", "config": {"l2": 0.0005000000237487257, "l1": 0.0}}, "filters": 255, "bias_initializer": {"class_name": "Zeros", "config": {}}, "use_bias": true, "activation": "linear", "kernel_size": [1, 1]}, "inbound_nodes": [[["leaky_re_lu_11", 0, 0, {}]]], "name": "conv2d_13"}], "input_layers": [["input_1", 0, 0]], "output_layers": [["conv2d_10", 0, 0], ["conv2d_13", 0, 0]], "name": "model_1"}}, "backend": "tensorflow"}, "weightsManifest": [{"paths": ["group1-shard1of9", "group1-shard2of9", "group1-shard3of9", "group1-shard4of9", "group1-shard5of9", "group1-shard6of9", "group1-shard7of9", "group1-shard8of9", "group1-shard9of9"], "weights": [{"dtype": "float32", "shape": [16], "name": "batch_normalization_1/gamma"}, {"dtype": "float32", "shape": [16], "name": "batch_normalization_1/beta"}, {"dtype": "float32", "shape": [16], "name": "batch_normalization_1/moving_mean"}, {"dtype": "float32", "shape": [16], "name": "batch_normalization_1/moving_variance"}, {"dtype": "float32", "shape": [128], "name": "batch_normalization_10/gamma"}, {"dtype": "float32", "shape": [128], "name": "batch_normalization_10/beta"}, {"dtype": "float32", "shape": [128], "name": "batch_normalization_10/moving_mean"}, {"dtype": "float32", "shape": [128], "name": "batch_normalization_10/moving_variance"}, {"dtype": "float32", "shape": [256], "name": "batch_normalization_11/gamma"}, {"dtype": "float32", "shape": [256], "name": "batch_normalization_11/beta"}, {"dtype": "float32", "shape": [256], "name": "batch_normalization_11/moving_mean"}, {"dtype": "float32", "shape": [256], "name": "batch_normalization_11/moving_variance"}, {"dtype": "float32", "shape": [32], "name": "batch_normalization_2/gamma"}, {"dtype": "float32", "shape": [32], "name": "batch_normalization_2/beta"}, {"dtype": "float32", "shape": [32], "name": "batch_normalization_2/moving_mean"}, {"dtype": "float32", "shape": [32], "name": "batch_normalization_2/moving_variance"}, {"dtype": "float32", "shape": [64], "name": "batch_normalization_3/gamma"}, {"dtype": "float32", "shape": [64], "name": "batch_normalization_3/beta"}, {"dtype": "float32", "shape": [64], "name": "batch_normalization_3/moving_mean"}, {"dtype": "float32", "shape": [64], "name": "batch_normalization_3/moving_variance"}, {"dtype": "float32", "shape": [128], "name": "batch_normalization_4/gamma"}, {"dtype": "float32", "shape": [128], "name": "batch_normalization_4/beta"}, {"dtype": "float32", "shape": [128], "name": "batch_normalization_4/moving_mean"}, {"dtype": "float32", "shape": [128], "name": "batch_normalization_4/moving_variance"}, {"dtype": "float32", "shape": [256], "name": "batch_normalization_5/gamma"}, {"dtype": "float32", "shape": [256], "name": "batch_normalization_5/beta"}, {"dtype": "float32", "shape": [256], "name": "batch_normalization_5/moving_mean"}, {"dtype": "float32", "shape": [256], "name": "batch_normalization_5/moving_variance"}, {"dtype": "float32", "shape": [512], "name": "batch_normalization_6/gamma"}, {"dtype": "float32", "shape": [512], "name": "batch_normalization_6/beta"}, {"dtype": "float32", "shape": [512], "name": "batch_normalization_6/moving_mean"}, {"dtype": "float32", "shape": [512], "name": "batch_normalization_6/moving_variance"}, {"dtype": "float32", "shape": [1024], "name": "batch_normalization_7/gamma"}, {"dtype": "float32", "shape": [1024], "name": "batch_normalization_7/beta"}, {"dtype": "float32", "shape": [1024], "name": "batch_normalization_7/moving_mean"}, {"dtype": "float32", "shape": [1024], "name": "batch_normalization_7/moving_variance"}, {"dtype": "float32", "shape": [256], "name": "batch_normalization_8/gamma"}, {"dtype": "float32", "shape": [256], "name": "batch_normalization_8/beta"}, {"dtype": "float32", "shape": [256], "name": "batch_normalization_8/moving_mean"}, {"dtype": "float32", "shape": [256], "name": "batch_normalization_8/moving_variance"}, {"dtype": "float32", "shape": [512], "name": "batch_normalization_9/gamma"}, {"dtype": "float32", "shape": [512], "name": "batch_normalization_9/beta"}, {"dtype": "float32", "shape": [512], "name": "batch_normalization_9/moving_mean"}, {"dtype": "float32", "shape": [512], "name": "batch_normalization_9/moving_variance"}, {"dtype": "float32", "shape": [3, 3, 3, 16], "name": "conv2d_1/kernel"}, {"dtype": "float32", "shape": [1, 1, 512, 255], "name": "conv2d_10/kernel"}, {"dtype": "float32", "shape": [255], "name": "conv2d_10/bias"}, {"dtype": "float32", "shape": [1, 1, 256, 128], "name": "conv2d_11/kernel"}, {"dtype": "float32", "shape": [3, 3, 384, 256], "name": "conv2d_12/kernel"}, {"dtype": "float32", "shape": [1, 1, 256, 255], "name": "conv2d_13/kernel"}, {"dtype": "float32", "shape": [255], "name": "conv2d_13/bias"}, {"dtype": "float32", "shape": [3, 3, 16, 32], "name": "conv2d_2/kernel"}, {"dtype": "float32", "shape": [3, 3, 32, 64], "name": "conv2d_3/kernel"}, {"dtype": "float32", "shape": [3, 3, 64, 128], "name": "conv2d_4/kernel"}, {"dtype": "float32", "shape": [3, 3, 128, 256], "name": "conv2d_5/kernel"}, {"dtype": "float32", "shape": [3, 3, 256, 512], "name": "conv2d_6/kernel"}, {"dtype": "float32", "shape": [3, 3, 512, 1024], "name": "conv2d_7/kernel"}, {"dtype": "float32", "shape": [1, 1, 1024, 256], "name": "conv2d_8/kernel"}, {"dtype": "float32", "shape": [3, 3, 256, 512], "name": "conv2d_9/kernel"}]}]}